real_time_RIC/rl_model/model_demo.pt (torch, 22035 bytes, 7 tensors)

action_log_std f4 [1, 2]
00000000: 0fea 4bbf 8df0 e3be
-0.7965402 -0.44519463

weight f4 [64, 6]
00000000: 48ee f93d 186f 453e 34db 1b3e 8335 1d3e
00000010: d27c 5cbc 77a7 893e 5eeb 173e dab2 abbe
00000020: 8f98 ff3d dc8e 85be 2ef8 27bc d858 57be
00000030: d5a4 8f3e 70b5 afbe f3f4 84be d44d a23e
00000040: eeb3 a6be 03f6 c03e 36cc a0be a73e 493e
00000050: 0956 ef3d 0637 d73d 3550 57bd 6aeb a13e
00000060: 9b25 0bbe dbf3 c83e c3e9 cb3e 3ce8 0c3e
00000070: 2319 473d 5fa6 0ebd fce2 813d f629 afbe
00000080: 2e48 cabd ba71 30be bd2f 57be eefe 75be
00000090: 57d2 e73d e05f 00be 66de 5dbe bf3c 8bbd
000000a0: fb01 083e 8a34 b53d 212a 683e 6f5e 083d
000000b0: da3b deba 0ff5 ba3e 4eb3 7d3d ccc0 d13d
000000c0: 14c6 643d 551c fcbd e00a 3d3e 1c50 ccbd
000000d0: e6b5 aebe 577f 59be 0fe6 093e b312 6f3e
000000e0: 331a 3dbe f93a c63d 89e7 6f3e 6ada 7fbe
000000f0: 95ab 47be f1ce 523e 1946 d83d 5925 a9be
00000100: 98cb 793e ba71 e2bc 7683 923e 7455 83be
00000110: 6a4e a5be 5954 debb 98b0 9fbe a428 30be
00000120: e5ae aebe f73a b53e e4cc 36be abdc d83c
00000130: fea5 babd fd35 d33d ba46 05be bbfb 91be
00000140: cc0e 5c3e ec27 63be aaf9 943e 0199 8e3e
00000150: c3fe dfbd 443b 473e cddc 9c3e e4f9 233e
00000160: 0d24 b3be cc58 3e3e e39c f0bd 6bc1 b13e
00000170: a0ad 8cbe dcf3 abbd ef6d a93a af49 c23e
00000180: 2a31 b33e 63b3 c43b a3f1 d0be 994e 17ba
00000190: b9af 6ebe 7c0a 9c3c c865 ff3a cf7c e03d
000001a0: aa18 16be 4856 69bd 6eac 8f3e 4cdb 43be
000001b0: 03e6 c33d c692 c63c 04bf 393e fe20 883d
000001c0: 9acc 80be 2f32 a23e b87f 12be 47ab b03d
000001d0: e2b5 8abe 6c7e 99be 5bf2 65be aa6b c4bd
000001e0: c191 6e3e f079 c93d 1a0a 3c3e 86c7 54be
000001f0: dce4 45be 0ab1 17be d89e cabe 08c4 b8be
00000200: f06d 50be 0d18 43be e90a 283e f4cd ca3e
00000210: a945 36be fd17 ecbd c0c6 853e 6322 953d
00000220: 3ea4 373b 5404 babe dc7d 27be eae2 a3bd
00000230: be0b 743e 942f 99be 6621 95be b837 9b3e
00000240: 0566 2a3e be79 0f3e dd3a f7bd ec2e c9bd
00000250: 5b9e 8bbe a88d 823d ca70 203d dc15 743e
00000260: 41d3 7bbe 193e 14be 5910 f9bd fb41 97be
00000270: 1aaf 9b3e 4c0e 8fbe 1f52 fbbd cb57 3d3e
00000280: d93d 9c3e 93b6 603d f170 c0be 9fd8 993e
00000290: 6867 153e d553 8d3e acea aebe 078e 54be
000002a0: 03e9 b1be 8a22 233e cb9d a23c e157 3e3e
000002b0: 5a0c c8bd 1b14 1bbd 1c30 af3e a96e 49be
000002c0: 35a4 833d 515d d03c 6c72 a83e 7a3e 5fbe
000002d0: 5d94 f1bd 8de8 cd3e 296a ba3d c7bb fd3c
000002e0: 21b9 68be c9c9 ac3e 1a30 c93e 9f4a ca3e
000002f0: 6d14 bbb9 7faf b6bc 8873 61be 79c0 86bd
00000300: d4cb a93d 5161 c73e 0e79 65be 1203 b43b
00000310: 8d80 48be c1dd 25bd dc8c 7bbe ebda 86be
00000320: 6dec 1b3d 7342 583e 04e2 56be 03f0 293d
00000330: 3913 bf3e 6c7f b83e 7cb8 bd3c 7575 2a3d
00000340: 3fe3 c7be 3574 d8bd 1529 3a3e dd54 643e
00000350: 8b37 453e affb 7b3e 3f14 c7be 6303 c23d
00000360: 50a5 293e a457 a9be f455 30be f1d1 1b3e
00000370: d115 9f3e 2cef 4c3e d2df 3cbe 0154 39be
00000380: dca0 57be 1b84 a9bd 631b b4bd 5f82 b03e
00000390: 5bd2 503e d4a2 04bb 750b 843e 5100 17bd
000003a0: 4219 b73d 4e2b 503c ae27 d1bd 3b72 f73d
000003b0: 312e ccbe 99e4 313e 6207 c8be 1aa2 9abd
000003c0: 0e4b 8dbd d80c 9f3e 651e b5bb 7e01 403e
000003d0: 648d 45bd 066f eb3d 798a 2ebd 3b55 f33d
000003e0: 4677 9fbd e85e a23e 3c11 0e3e c170 52be
000003f0: ab32 803e 1414 acbe fe3a 40be 7bde c1be
0.12203652 0.1928066 0.15220338 0.15352444 -0.013457494 0.26885578 0.14835879 -0.3353489
0.1248027 -0.26085556 -0.010252042 -0.21029985 0.28055444 -0.34318113 -0.2596813 0.31700003
-0.3255915 0.37687692 -0.314058 0.19652806 0.11686332 0.10508542 -0.052566726 0.3162492
-0.13588564 0.39248547 0.39826784 0.13760465 0.048607957 -0.034826633 0.06342122 -0.342117
-0.098770484 -0.17230883 -0.21014304 -0.24023029 0.11319416 -0.12536573 -0.2166687 -0.06798696
0.13282005 0.08847912 0.22672321 0.033293184 -0.0016955093 0.3651509 0.061938576 0.10241851
0.055852965 -0.123100914 0.1846118 -0.09976217 -0.34123152 -0.21239983 0.13466667 0.23346977
-0.18467025 0.09679217 0.23428167 -0.24985662 -0.19499047 0.20586754 0.10560245 -0.33036307
0.24394071 -0.02764212 0.28615922 -0.25651133 -0.32286388 -0.0067849574 -0.31189418 -0.17203003
-0.3411781 0.3539655 -0.17851597 0.02647241 -0.09113692 0.10313032 -0.13015261 -0.28512368
0.2149002 -0.22183198 0.2909673 0.27851108 -0.10937264 0.19456202 0.30637208 0.16013294
-0.34988442 0.18588561 -0.11748674 0.3471788 -0.27476215 -0.08396122 0.001292644 0.3794684
0.34998447 0.00600283 -0.40809354 -0.0005771905 -0.2330922 0.019047968 0.0019485289 0.10961305
-0.14657846 -0.05696705 0.2806124 -0.19126624 0.09565356 0.024239909 0.18139273 0.06646918
-0.251561 0.31678912 -0.14306533 0.086264186 -0.2709189 -0.29979265 -0.22455733 -0.09590848
0.23297788 0.09837711 0.18363228 -0.20779237 -0.19325584 -0.14813629 -0.39574313 -0.3608706
-0.20354438 -0.19052143 0.16410412 0.39610255 -0.1780001 -0.11528013 0.26128197 0.07281949
0.002802148 -0.36331427 -0.16356605 -0.08002265 0.23832604 -0.29919112 -0.29127043 0.30315948
0.1664048 0.14011285 -0.12071774 -0.09823403 -0.27269253 0.06374675 0.039170064 0.23836464
-0.24592306 -0.14476813 -0.12161321 -0.29542527 0.3040703 -0.27940595 -0.12271523 0.18490522
0.30515936 0.054861616 -0.37586167 0.3004808 0.14590228 0.2760302 -0.34163415 -0.20757304
-0.34748086 0.15931144 0.019850632 0.1858821 -0.09767981 -0.03786097 0.34216392 -0.1967112
0.064278044 0.025435122 0.32899797 -0.21801177 -0.11795876 0.40216485 0.0910228 0.030973328
-0.22726871 0.337477 0.3929451 0.39510056 -0.00035682638 -0.02230048 -0.22016728 -0.0657968
0.0829083 0.38941434 -0.2240946 0.00549353 -0.19580288 -0.040494684 -0.24565452 -0.26338896
0.03806727 0.21119098 -0.20984656 0.04148866 0.37319353 0.36034715 0.023159258 0.041615922
-0.39040563 -0.1056904 0.18179734 0.22297998 0.19259469 0.24607728 -0.38882634 0.09473302
0.16566968 -0.33074677 -0.17220289 0.15216805 0.31071332 0.20013112 -0.18444756 -0.18098451
-0.21057457 -0.0827715 -0.08794286 0.34474465 0.20392744 -0.0020238655 0.2578999 -0.036865536
0.089403644 0.012705637 -0.102126464 0.120823346 -0.3987899 0.1737236 -0.39068133 -0.0755045
-0.06899081 0.31064487 -0.005527305 0.18750569 -0.048230544 0.114957854 -0.042612527 0.11881491
-0.077864215 0.31713033 0.13873762 -0.20550825 0.25038657 -0.33609068 -0.18772504 -0.37865052

bias f4 [64]
00000000: a48e c63d 0917 2a3e da71 96be ab70 cebe
00000010: 526c 86bd 3eb9 99be c1a0 3e3e c34b 46be
00000020: 6085 393e 0a17 523d 3722 8b3e 4536 37bd
00000030: e8f0 28be 4726 d9bd 0e48 5cbd 0a10 c53e
00000040: cd4c 00bd e682 d03e f25c 0c3e 1b4a bd3e
00000050: 2115 acbe 4a40 433d c1f7 32be d1ea 0a3d
00000060: 2f6e cfbd 78ca a1be 3571 c9be 9d5d 373d
00000070: df57 5cbc a9c1 b83e 79ce a4bd 7540 b03e
00000080: 5b53 65be b6f4 a73e db0c 8b3e 5e39 1c3e
00000090: 7c96 10be b921 c93e c039 b8be 4c5d 89be
000000a0: ed05 b43b cf2a cbbe f72b aa3e a15e b23e
000000b0: bf16 3cbd 60a6 bf3e 6b61 12bd b345 1f3e
000000c0: 74b2 e53b cf12 1fbe 4b53 8c3e 3221 bd3e
000000d0: c040 c33d 94e8 623d a89d 9fbe bfdb b73e
000000e0: ed1c 673e 0fed 5d3d 5dc7 89be 40cf a43e
000000f0: eb69 af3e 99a6 8bbe 6eb8 c73d 9237 77be
0.09695175 0.1661035 -0.29383737 -0.40320334 -0.06563629 -0.3002414 0.1861601 -0.19364838
0.18117285 0.051291503 0.2717454 -0.04472949 -0.16498148 -0.10603004 -0.053779654 0.384888
-0.031323243 0.40724868 0.13707331 0.369706 -0.3360987 0.047668733 -0.17477323 0.033915345
-0.10128438 -0.31599784 -0.39344183 0.04476701 -0.0134486845 0.3608525 -0.08047194 0.34424177
-0.22395079 0.32803887 0.27158245 0.15256259 -0.14119905 0.3928354 -0.3598156 -0.26828992
0.0054938705 -0.39681098 0.33236668 0.3483782 -0.04592013 0.37431622 -0.035737436 0.15553932
0.0070097987 -0.15534519 0.27407297 0.3693939 0.095338345 0.055397585 -0.3117497 0.3590984
0.22569628 0.054181155 -0.26909915 0.3218937 0.34260496 -0.2727554 0.09751974 -0.24142292

weight f4 [64, 64]
00000000: 90cf 15be e4b7 153d b139 be3c ec90 24be
00000010: 0924 a6bc a00c 553d 2cf1 503d a80c e6bd
00000020: 6095 b1bb de39 99bd 3a15 62bd b86e 41bd
00000030: 88ef ee3d 50ff 093d 96d0 263d 7697 a8bd
00000040: fa94 d7bd 8ec5 db3d 5075 98bd e88d a43c
00000050: a2ea 0d3d 0c0b c6bd 2288 e23d 860f 08be
00000060: 24f6 69bd 0040 f93c 60ae 923c 9c05 4a3d
00000070: 9ce0 ac3c 38ee 863d cf1f fcbc 0a72 c2bd
00000080: 70ea 423d d01c 67bd c084 ebbd 48b9 05be
00000090: efb3 2f3b 3c74 6a3d fc2a 72bd 8e47 823d
000000a0: f4bc 6c3d 04cd 503d 9045 673d 807c 843a
000000b0: 4aac 09be 8254 a7bd 13c1 563b 08fb e73c
000000c0: a809 9b3d 4002 29bd 1678 3ebd 42e9 1cbe
000000d0: 5069 4c3d eed4 bb3d a8a5 9fbc 7847 32bd
000000e0: 3ac5 e3bd 44a1 2bbd e84a 903d 62ae 08be
000000f0: aa03 36bd 3910 03be be53 943d 40b9 79bd
00000100: 1751 81bd 8a25 d73d 60f1 573b 5075 dabd
00000110: 0283 a6bd 24f2 843d de2a acbd 2d2d bd3c
00000120: 8075 1c3c ec61 17bd c6fb eb3d f025 19bd
00000130: c0d9 453c a85b c63d c6e4 c63d 95a0 d93c
00000140: 4c53 dfbd cc1a 053d 7c9b 023e 96d9 f2bd
00000150: 06f1 a83d 4145 603d c484 b43d 43bc da3c
00000160: 58d9 64bd 74f3 9a3d 1c6c a5bd 04a8 1c3d
00000170: e8da 243d 6c98 843d 20bd b13d 9042 123c
00000180: 1667 c4bd eeca 21bb 2085 b5bd 9aa9 b43d
00000190: 46f7 b0bd 4bb2 a4bc 2922 db3b 1020 163c
000001a0: 0ed1 8ebd a86c f43d 96fd df3d 408f 30bc
000001b0: 4d8f 3fbd 80e9 e4bd ee7d bd3d 808e 1e3b
000001c0: 705a 3ebd 2409 503d 2031 473d 10ca e03d
000001d0: 484d 803c 12e1 99bd d8fd b03c b689 b43d
000001e0: 4c28 083e fcc4 eb3d a3f7 aabc c487 6e3a
000001f0: e891 093e 6234 b63d 70a2 ee3d 7a6f cabd
00000200: aabd ffbd 44fe 7fbd ddce 8b3d 1eca 0d3d
00000210: feae d63c 48d0 e4bd 747d 4dbd 4465 8d3c
00000220: bc48 0f3d a002 bcbb 38b4 623d 8cb3 a4bd
00000230: 1cf1 373d cdd5 a83d c77d a53d bbd3 863d
00000240: 4c35 dbbd 16ad 983d f401 0abe 284a e13d
00000250: 760c 4b3d bcb2 68bd 4c5d 92bd ebf6 bb3d
00000260: f0f7 24bd 0c67 b43d 6c45 3ebd 00a7 903a
00000270: 4ca3 8ebd 7822 be3c 49bc 8d3d 0494 7a3d
00000280: ca50 aabd db64 98bd 2040 aa3c 3bd5 c1bd
00000290: bbda 8f3d 59cf f0bd db85 c53d ca13 8d3d
000002a0: 968d 60bd 2c65 adbd d58e 9bbd a070 93bd
000002b0: ffc0 7fbd dcfb b1bc 392f 91bd 18ee af3d
000002c0: 3056 bb3d 70a5 84bd 2571 933d 50b6 78bd
000002d0: 64cc 673d 7071 773d 92da fcbd 18b4 b03c
000002e0: d3d8 f1bd ec1b a13d 8d49 d9bd 71dc 8d3d
000002f0: 0f6f d2bd ab7d b5bd 207f 7dbc 0359 f9bd
00000300: d55f b93d b013 afbd 8330 dfbc 958e 0c3e
00000310: 656f e03d 88d8 4e3d bec9 ce3d 33fc 0f3e
00000320: b4bd ba3d e027 46bd 73f5 af3c 6871 d33d
00000330: 164e debd ebc8 c63d 155d a8bc 2e26 023d
00000340: d41c f93d 3841 83bd ea49 d3bb 003c 55bd
00000350: d41d fa3c 30ea 563d bcd5 9abd 468b 133d
00000360: 3cce 053d 50df 833d 10fb a6bd d085 193c
00000370: 088f 5abd 40bc dcbd a34e 9cbd 2cd2 343d
00000380: cc7b 1f3d 109b 023d 9ef5 933d 818b 98bd
00000390: 8d83 b7bc ef75 51bc f4ee 65bd 342f 52bd
000003a0: a7b9 063e 00af faba 93d2 0c3e bcfd 28bd
000003b0: d866 43bd 77d3 42bc bb53 34bc c03b 1c3b
000003c0: 90bd d33c ca7d a73d bba3 5b3d 6bec b53d
000003d0: 50fc 8e3c b03b 973d d48a b03d 0072 423a
000003e0: 6c45 723d d4d0 143d 21d7 083e cdce c23d
000003f0: e8ce 563d 3548 c7bd b04c ddbd 013d a2bd
-0.1462996 0.036552325 0.023220869 -0.16070908 -0.020280855 0.052013993 0.05101125 -0.11232883
-0.005419418 -0.074817404 -0.055196024 -0.04722473 0.11666781 0.03369075 0.040726267 -0.08232014
-0.10526462 0.1073104 -0.074442506 0.020087197 0.03464759 -0.09670076 0.110611215 -0.13287172
-0.057119504 0.030426025 0.017905414 0.049321756 0.021103196 0.06588405 -0.030776886 -0.094944075
0.04758686 -0.056423962 -0.114999294 -0.1305896 0.002681013 0.057239756 -0.059123024 0.06361304
0.057797387 0.050976768 0.056462824 0.0010107905 -0.1344463 -0.081704155 0.003276889 0.028317943
0.07570201 -0.04126191 -0.04650124 -0.15323356 0.04990512 0.091714725 -0.01948817 -0.04352519
-0.11121602 -0.04190184 0.07045537 -0.13347772 -0.044437088 -0.12799157 0.07242535 -0.060967684
-0.06314295 0.10505207 0.0032950267 -0.10666907 -0.081304565 0.06491497 -0.08406614 0.02309283
0.009549499 -0.03695862 0.11522631 -0.037389696 0.012075841 0.09685451 0.09711604 0.02656583
-0.109045595 0.03249626 0.12754625 -0.118579075 0.082490966 0.054753546 0.088143855 0.026701098
-0.055871338 0.07565966 -0.08077261 0.03824617 0.040247828 0.06474385 0.08678651 0.008927003
-0.095899746 -0.0024687606 -0.08863282 0.088214114 -0.08640914 -0.020104548 0.006687422 0.009162918
-0.06973468 0.11934787 0.109370396 -0.010776341 -0.04676752 -0.11177349 0.09252535 0.0024193823
-0.046472967 0.050789967 0.048630834 0.1097604 0.01566185 -0.07513632 0.021605417 0.08815329
0.13296622 0.11512181 -0.020870036 0.000909921 0.13434565 0.0889671 0.11652076 -0.09884544
-0.124873474 -0.062498346 0.068265654 0.034616582 0.02620649 -0.11172539 -0.05016847 0.017260201
0.034981474 -0.0057376176 0.05534765 -0.08042058 0.044907674 0.08243904 0.08080631 0.06583353
-0.10703525 0.074548885 -0.13477308 0.11000472 0.04957243 -0.05681108 -0.07146701 0.09177955
-0.040275514 0.08808717 -0.046452925 0.0011036098 -0.0696474 0.023209795 0.06920678 0.061176315
-0.083161905 -0.07441112 0.02078253 -0.094644986 0.070241414 -0.117582984 0.096446715 0.0688854
-0.054822527 -0.08466563 -0.075956024 -0.07199216 -0.062439915 -0.021726541 -0.07089085 0.08590335
0.09147298 -0.06476867 0.07199315 -0.06072074 0.056591406 0.060410917 -0.123463765 0.02157025
-0.11808934 0.07866654 -0.10609732 0.069268115 -0.10275089 -0.0886186 -0.0154722035 -0.12175181
0.09051482 -0.08548677 -0.027244812 0.13726266 0.10958747 0.05049947 0.10097073 0.1406105
0.09118214 -0.04837787 0.021479344 0.10324365 -0.108547375 0.09706291 -0.020552197 0.031774692
0.12163702 -0.06408924 -0.00644802 -0.052059174 0.030531801 0.052469432 -0.07560298 0.036021493
0.032667384 0.06439078 -0.08153355 0.009370282 -0.05335906 -0.10778093 -0.07632186 0.044145748
0.03893642 0.03188616 0.07224582 -0.07448483 -0.022401595 -0.012784465 -0.056136087 -0.051314548
0.13156758 -0.001912564 0.13752203 -0.041257605 -0.0477055 -0.011891237 -0.011006291 0.0023839325
0.025847226 0.08178289 0.053622942 0.08882984 0.017454296 0.07384431 0.08620229 0.00074175
0.059148237 0.036331967 0.13363315 0.095121 0.052443415 -0.09730569 -0.108056426 -0.07921792

bias f4 [64]
00000000: 2706 81bd 5f26 203d 7a95 63bd ce7c be3b
00000010: 2bc4 e8bc 1368 36be c0ec 803d 3466 b0bc
00000020: 5e35 1fbe fbcb c0bd 8e2b 8d3d 3b53 c5bd
00000030: ffb6 003e 596d 863c af39 19be 97fe 053d
00000040: 5924 513d eba1 a83a 1a7d 0e3e 9642 163d
00000050: 3c34 bdbd 3433 91bd 4c97 90bd 7291 6bbc
00000060: 56aa efbd 753c 193d 5185 1c3e 12eb 303c
00000070: 6d31 fbbd 4a16 973d 83a4 21be 10a1 0fbe
00000080: e82f e43c f8d7 693d ff1b 253e a002 81bd
00000090: 8e2b 903d cc57 c6bd a495 15bd 2945 63bd
000000a0: 64fe f5bc d639 8a3c eec5 21bc 29a8 b1bd
000000b0: 710b 293d 8452 a93c 612f bbbc fbd1 97bc
000000c0: 1e36 87bc 5424 6bbd ae68 aa3b 4b29 bbbc
000000d0: 3a19 b3bd c1a7 b0bd b6c7 9fbd 375e 4f3d
000000e0: 34eb 3d3d 7bcd dc3d 8cf0 70bd bf94 7f3d
000000f0: f6c5 af3c 5300 e83d add7 b2bc 094d ee3b
-0.063000016 0.039099094 -0.055562474 0.0058132177 -0.028413853 -0.17813139 0.062951565 -0.02153311
-0.15547702 -0.09413906 0.06893073 -0.096350156 0.12569807 0.016409563 -0.14963411 0.0327135
0.051060054 0.0012865638 0.1391491 0.036684595 -0.092384785 -0.07089844 -0.070601076 -0.014377939
-0.11702411 0.037411172 0.15285231 0.010798233 -0.122652866 0.07377298 -0.15785412 -0.14026284
0.027854875 0.05709073 0.16123961 -0.06299329 0.070395574 -0.09684715 -0.03651966 -0.05548588
-0.03002853 0.016873281 -0.00987385 -0.08674652 0.041270677 0.02066923 -0.02284974 -0.018532744
-0.016505297 -0.057407692 0.005200467 -0.022846838 -0.08745046 -0.086257465 -0.07801764 0.05062696
0.046366885 0.1078138 -0.058823153 0.062397715 0.0214567 0.11328187 -0.021831358 0.007272367

weight f4 [2, 64]
00000000: b974 dabc 6f55 3bbd fb88 14bd f90d 31bd
00000010: 7d5e 39bd 86b8 e1bc ee05 4ebd ca77 17bd
00000020: b53e f9bc 767f 05bd 1657 febc 6f94 30bd
00000030: 5851 41bd 88cb 1abd ffab f7bc b15a 1ebd
00000040: 7019 f1bc 8804 01bd 0fe3 23bd 75e7 2cbd
00000050: da4d f5bc 219b 03bd 3a26 e4bc e185 00bd
00000060: 2b92 0dbd eca1 fabc 3322 58bd 3b16 f9bc
00000070: 4216 23bd 7a1b 00bd ab12 f9bc 5909 07bd
00000080: 9b01 04bd 94d4 0abd 2818 50bd 21f8 f0bc
00000090: 16f2 d8bc fa83 e5bc 554d 1cbd 0cb1 10bd
000000a0: d445 67bd 8518 eebc ae20 fbbc 004f 05bd
000000b0: 83af 14bd 6f7d e8bc 707f 3fbd 17bb e7bc
000000c0: eb81 e0bc 7e1e 4fbd 8839 dfbc c6fd 01bd
000000d0: 7ddb edbc 4b59 04bd 59d9 19bd 914b 1bbd
000000e0: 32cc 30bd ca18 0abd c175 31bd 75dd 0dbd
000000f0: 176b 2ebd 4b56 11bd 3125 ecbc 6baf 27bd
00000100: 4f06 443d 3bc3 823d b06f 623d 3a98 9f3d
00000110: 7375 983d 67e2 443d 5360 a63d c24e 633d
00000120: f8b3 5e3d cc55 903d d95c 593d 5355 913d
00000130: 1bf2 873d aac9 6d3d 69ab 623d 524e 9e3d
00000140: 9827 493d 28ca 603d 1116 a53d e28e a13d
00000150: 7820 5e3d eb41 643d 5edf 503d 4b69 843d
00000160: 6e88 813d ae1d 5b3d 125e ad3d ae2e 643d
00000170: 9248 713d 8b17 6e3d 20f2 5c3d 144a 573d
00000180: b826 5d3d 6c50 833d 52ed af3d 0b99 4f3d
00000190: 09e4 503d 619a 573d 85ad 8a3d d2a0 993d
000001a0: d60c b53d 1e09 4e3d b3be 673d 2bdc 593d
000001b0: 1d28 923d 7a41 4e3d 8975 af3d a7b7 483d
000001c0: ffda 403d 7283 a33d d5cc 463d 748a 5b3d
000001d0: 7534 563d 139a 553d 9260 833d 838f 5f3d
000001e0: b5e7 793d bdad 823d 4320 953d 9f2c 7f3d
000001f0: cf1c a23d 734c 863d 70f8 433d 5a50 843d
-0.026666986 -0.045735773 -0.036263447 -0.043226216 -0.045256127 -0.027553808 -0.050298624 -0.036979474
-0.030425409 -0.03259226 -0.031047385 -0.043110307 -0.047196716 -0.03779176 -0.030233381 -0.03866071
-0.029431075 -0.031498462 -0.04001146 -0.042212922 -0.02994435 -0.032130364 -0.02785026 -0.031377677
-0.034563225 -0.030594788 -0.05276699 -0.030406108 -0.03981615 -0.031276204 -0.03040441 -0.0329679
-0.032228094 -0.033894137 -0.050804287 -0.029415192 -0.026482623 -0.028017033 -0.038159687 -0.035325095
-0.056463078 -0.029064426 -0.030655231 -0.032546043 -0.036300194 -0.028380124 -0.046752393 -0.028287454
-0.0274057 -0.05056619 -0.027249113 -0.031736158 -0.029035324 -0.03231172 -0.037560795 -0.037913863
-0.043163486 -0.033715047 -0.04332519 -0.034635026 -0.042582598 -0.035482686 -0.028826328 -0.040938776
0.04785758 0.063848935 0.055282295 0.07792707 0.07444277 0.048067477 0.08123841 0.05549503
0.05437085 0.070476145 0.053067062 0.070963524 0.06637975 0.05805365 0.05533925 0.07729782
0.049110025 0.05488029 0.080608495 0.07888581 0.054230183 0.055726927 0.05099427 0.064653955
0.0632485 0.0534951 0.08465208 0.05570858 0.0589071 0.05812792 0.053941846 0.05256088
0.053992003 0.06411824 0.08590187 0.050683063 0.05099872 0.05263746 0.067713775 0.07501377
0.08840339 0.050301664 0.05657835 0.053188484 0.07136557 0.050355412 0.0856734 0.04900327
0.04708385 0.079840556 0.048535187 0.053598836 0.05229612 0.05214889 0.06414904 0.054580223
0.06101199 0.06380794 0.07281544 0.062298413 0.07915651 0.0655755 0.04784435 0.06460638

bias f4 [2]
00000000: a035 4cbd 779d ab3d
-0.04985583 0.083796434
