real_time_RIC/rl_model/initial_model/model_demo.pt (torch, 22099 bytes, 7 tensors)

action_log_std f4 [1, 2]
00000000: b02b c63c e410 89bc
0.024190754 -0.016731687

weight f4 [64, 6]
00000000: b93c 533d 97f4 00bc e574 4a3e 5378 59be
00000010: ec66 8cbd 4ee4 bcbe e30d adbe fcb6 cb3e
00000020: 6b93 43be 6853 2a3e a42b a5be 91b4 c2be
00000030: ba2c 373e a305 b7be 880a ad3e c9dc 92be
00000040: 6912 cf3e b935 24be a040 6b3e 1d3d 8e3e
00000050: 80ed b63d 06f9 50be 0678 9bbe 0e26 a53e
00000060: c2ed 8e3e 272e 823d 2bef 1cbe d985 c43e
00000070: eb62 b43e 3676 803e 31c4 953e a07a c9bd
00000080: af15 533d 69a2 a3bd a30f cfbe 075e febd
00000090: 81c2 52be 0acd 46be 7ee1 603e a200 ad3e
000000a0: 268b d73c 8f59 2d3d 2bad b0be 8147 ccbe
000000b0: fd9b e93c ff70 0d3e dbf7 05be 0e85 42be
000000c0: c568 af3e 6d83 783e 8de7 13bd c57b 5d3d
000000d0: aa09 0fbe 8069 efba cd49 20bd ac79 8dbe
000000e0: 9b32 86bd bb7c ca3e ef36 373e b528 3cbe
000000f0: d90a 75be efb3 373e 6838 b93b 1591 8bbe
00000100: 50f4 bfbd 3a36 42be 6230 54be a65d b83e
00000110: 8a7a c63e 6a3d c23e 48f5 afbe 9b40 cd3e
00000120: 2baf 2cbd 1f08 54be b105 b4be 0314 9dbe
00000130: d6fd 023e 3e5c 8f3e e47f b63e b30d c9be
00000140: 5d9d 953e 1a27 bb3c ed7a 033e 8d16 cbbd
00000150: 2b09 afbe 6310 a93e b32a e9bd 01fe 183e
00000160: 4db8 b5bd 2824 cdbe 06f7 8b3e ef4f efbd
00000170: c30c 083e d4c8 91be 0674 793e 2026 b93e
00000180: 886f af3e 104a ccbd a8db b93e 938f b3be
00000190: 96e0 aabe eddd a7be 83a1 853e e729 c6bd
000001a0: 0afb 85be 569a cc3e f28c 2a3e 5709 923b
000001b0: cb77 c0bc 3b89 cdbe 9ee1 4f3d ffd0 13bd
000001c0: 8b65 7abe f406 9bbe cece bb3e 4379 173d
000001d0: 4db4 aa3d e03d e4bd 0af7 aebe 5553 40be
000001e0: 5731 f0bd 5679 e03d 0779 98bc 04b4 59be
000001f0: ea6b b63e f22e 783e d306 923e 8ef5 95bd
00000200: f0e1 8a3c 1d01 713e 12b4 f4bd 3787 223e
00000210: c826 8a3d 764a 50be 06dd 933e 4e9f d7bd
00000220: a9fd 85be 9e0f 04be 1a27 bb3c af4b 8abe
00000230: 4ce9 3dbe a909 4dbd 0a5b 95be fbb3 84be
00000240: 37cb 4a3e 2045 9a3c 7681 c13e ab8a 48be
00000250: 7c27 56be 4a5c b73e 8ed7 80be 4bca b0be
00000260: 14bf 9ebd dafe 7ebe 11be b4be 7aec 9e3e
00000270: 7162 7f3e 523e c23e 2525 a7be e98f 953e
00000280: 094d 833e a76b b53e 146e 7ebe 50a7 96be
00000290: 03ec 923e 08b2 aebe 00f4 bbbe 0b4e f0bd
000002a0: 29c9 0bbd cc75 bbbe 05b3 91be d668 943d
000002b0: 4f31 b23e 54cd 103e 606a 56be a12d ad3e
000002c0: f8cd b4bb aa06 c73d bb8f dbbc 14f1 84be
000002d0: b1bd a53e db3f 9e3e a64a 9c3e 3f61 0bbe
000002e0: a886 cbbe cf01 9cbc f566 863e dcb4 5e3e
000002f0: 4b54 a53e e593 bd3e 1042 b5bd d3d1 983e
00000300: 3d62 be3e 1ca7 b43d 242d 79be 83b4 243e
00000310: 9235 e9bd 2dcc f63d 200a a1be c1b2 de3d
00000320: e722 4e3e a591 bc3e c022 cc3e a1cb a3be
00000330: 5245 783e 6468 e13d 18a9 763e 9b3e 883e
00000340: 0068 a33e 17a4 c0bd a94d c33d 3df3 573e
00000350: 90bf b03d f137 c53e 26f6 9bbe 7a48 563d
00000360: e769 9fbe 7116 993e dcb9 c0be b106 4f3e
00000370: 3fe7 97be 0e05 c13e e6fe 953e 623d 90be
00000380: aa81 743e 308e 8d3e 0f46 a53e 006d 20be
00000390: a580 143e 44c9 8dbe 3ec0 8bbe 772c b53e
000003a0: ae8f a33e 8078 083e c054 003e 3029 a23d
000003b0: e4f4 cc3d 2309 bd3e 792c d23c 4767 43be
000003c0: 2f2f 5d3e 80b8 aa3e 6a3c b7be 3c19 9bbe
000003d0: b5a6 3abd ed07 8e3e d15c a8be 0c1f f83c
000003e0: 5fad abbe a809 a0bc 8cc5 803e 1a9b 2bbe
000003f0: eef6 27be 7408 623e 49d1 10bd f337 6fbe
0.05157158 -0.007870815 0.19771154 -0.21237306 -0.06855568 -0.36892933 -0.33799657 0.39788043
-0.19099204 0.1663338 -0.32259858 -0.38028386 0.17888156 -0.35746488 0.33797097 -0.2868407
0.40443733 -0.16036119 0.22973871 0.27781 0.08932018 -0.20407495 -0.30365008 0.32255596
0.2791577 0.06356459 -0.1532561 0.38383368 0.35231718 0.25090188 0.29251245 -0.09837842
0.05153435 -0.07989962 -0.40441617 -0.12420278 -0.2058201 -0.19414154 0.21961018 0.33789545
0.026311468 0.042321738 -0.34507117 -0.39898303 0.028516764 0.13812636 -0.1308283 -0.18996069
0.3425962 0.24268885 -0.036109496 0.054073114 -0.1396853 -0.0018265694 -0.039132882 -0.2763189
-0.06552621 0.39548287 0.17892049 -0.18374904 -0.2392992 0.17939733 0.005652476 -0.27259126
-0.09372771 -0.18965998 -0.20721582 0.36008948 0.38765365 0.3793748 -0.34366822 0.40088353
-0.04215924 -0.20706223 -0.35160592 -0.3067933 0.12792143 0.28000063 0.35644448 -0.39268264
0.2922162 0.022845794 0.12839861 -0.099164106 -0.34186682 0.33020315 -0.11385097 0.14940645
-0.08873043 -0.40066648 0.273369 -0.11685168 0.13286118 -0.28473532 0.24360666 0.361619
0.3426478 -0.09975064 0.36300397 -0.35070476 -0.3337447 -0.32786503 0.26099786 -0.09675961
-0.2616809 0.399615 0.16655329 0.00445668 -0.023494622 -0.4014376 0.050752275 -0.036087986
-0.24452798 -0.30278742 0.36681217 0.03698088 0.08335171 -0.11144614 -0.3417285 -0.18781789
-0.11728161 0.10960643 -0.018612398 -0.21260077 0.35629207 0.24236658 0.2852083 -0.073222265
0.016953439 0.23535581 -0.11948408 0.15871893 0.06745678 -0.20340905 0.28879565 -0.10528432
-0.2617009 -0.12896582 0.022845794 -0.27010867 -0.18546027 -0.05005804 -0.2917102 -0.25918564
0.19804083 0.01883179 0.37794083 -0.19584148 -0.209135 0.35812598 -0.25164455 -0.34529337
-0.07751289 -0.24901906 -0.3530126 0.31039792 0.24939896 0.37938172 -0.32645527 0.29211357
0.2564471 0.35433695 -0.24846679 -0.29424524 0.28695688 -0.34120202 -0.36709595 -0.117336355
-0.03412739 -0.3661331 -0.28456894 0.07246558 0.34803244 0.14140826 -0.20939016 0.33823875
-0.0055177175 0.09718068 -0.026801934 -0.25965178 0.32371286 0.30908093 0.30525702 -0.13611315
-0.39751172 -0.019043831 0.26250425 0.2174868 0.32290873 0.37026897 -0.08850491 0.29847583
0.37184325 0.08820936 -0.24333626 0.16084485 -0.11387171 0.12050662 -0.31453037 0.10873938
0.20130502 0.36829868 0.39870262 -0.31991294 0.24245194 0.11006239 0.24087942 0.26610264
0.31915283 -0.09406298 0.09536297 0.21088882 0.08630288 0.38519242 -0.30461234 0.052315213
-0.31135485 0.29899934 -0.376418 0.20217396 -0.29668614 0.3769917 0.29296035 -0.2817183
0.23877588 0.27647543 0.32280013 -0.1566658 0.14502199 -0.27692616 -0.27295107 0.35385486
0.31945556 0.13327217 0.1253233 0.07918012 0.10007647 0.36921033 0.025655972 -0.19082366
0.2160003 0.33343887 -0.3578828 -0.3029269 -0.04556914 0.27740422 -0.32883313 0.030288242
-0.3353071 -0.019535854 0.25150716 -0.16758385 -0.1640279 0.22073537 -0.03535584 -0.23361187

bias f4 [64]
00000000: 6914 95be d30c bc3e 6a3b 91be 7802 f93d
00000010: 0e9b b5be 809c 843c a776 fd3d 8e68 c03e
00000020: dcc2 8c3e c802 363e 5733 bf3a ee88 88be
00000030: f576 ec3d 7d6d b63d 840f 633d 66c7 01be
00000040: 0cbf 09be 399e ca3e c219 573d 939b 873e
00000050: a570 90be 7f10 82be 5a5d b63e d782 6ebc
00000060: 8a20 30be 546e cd3e 65af 31be 87a9 ad3e
00000070: b0a0 9a3e 73cb e83d 7a33 c53e a639 c83e
00000080: f2c8 0e3e 53c0 513e fffa 373d eaeb 3cbe
00000090: 8212 983d 6c6b 6c3c 919b 40be 918a babd
000000a0: ab6b 82bc 6f6c 753e 2553 c4bd 9978 2ebe
000000b0: fa32 0a3e 2354 573e 1eb6 afbe a8f6 09be
000000c0: d4c6 e9bd d953 9a3d 959d 20be 27b2 753d
000000d0: 815c d73c 9d6f 6abd 1fc4 453e 8ef6 8a3c
000000e0: f051 96be 8248 adbe 2aae 543e 5071 babe
000000f0: 493d 77bd c02d c0bd a1ca 3c3e 6d11 ed3d
-0.29117134 0.36728534 -0.28365642 0.12158674 -0.3546986 0.016187906 0.12376147 0.3757977
0.27492416 0.17774498 0.0014587444 -0.2666697 0.11546127 0.08907602 0.05543472 -0.1267372
-0.13451785 0.3957384 0.0525148 0.2648588 -0.2821094 -0.2540321 0.35618097 -0.014557562
-0.17199913 0.40123236 -0.17352064 0.33918402 0.3020072 0.1136693 0.38515836 0.39106482
0.13943842 0.20483522 0.044917103 -0.18449369 0.07425405 0.014429908 -0.18809344 -0.09108461
-0.01592048 0.23967145 -0.09586171 -0.17038192 0.13496009 0.2102819 -0.34318632 -0.13472998
-0.114148766 0.07535524 -0.15685113 0.059984352 0.026289226 -0.05723535 0.19313096 0.01696327
-0.29359388 -0.33844382 0.20769563 -0.36414576 -0.06036118 -0.09383726 0.18436672 0.11575589

weight f4 [64, 64]
00000000: 9c5d e3bd 485c fabd b934 05be f64c aebc
00000010: 6867 713d b6d2 e1bd 9193 c2bd 0e84 9abd
00000020: 45b7 88bd aa6f e13d 36c6 98bd ea1a 6d3d
00000030: f044 a5bc 31a2 ba3c 0c68 57bd 693d e0bd
00000040: 6257 f43b d4bb fd3d 10ff dabd c0c9 f7bc
00000050: 040e 9bbb 3346 0dbe a64f 9a3b 6ca3 e1bd
00000060: 5ef5 3fbd 5226 703d 7654 d4bb 9603 303d
00000070: 90d0 38bc 804d 28bd bb28 a2bd 67e5 e7bc
00000080: a07b 69bd 2069 5dbd e104 d63d 01c4 a73c
00000090: 99bc d23c bb32 e0bd 907d 4b3d 5015 c33c
000000a0: ca1b e53d 585b f6bc ae1a c8bd 2a44 5a3d
000000b0: b766 bbbd c109 adbd fbd7 993d b15d ab3c
000000c0: 1fa1 85bc 61e1 833d 8be3 c03d f5ab 94bd
000000d0: fc96 b93d d7fe 15ba e73c bcbc ee5c acbd
000000e0: 1065 55bd 08eb 8dbd dc35 473d f0fe 2e3c
000000f0: 696e bf3d 78e5 f1bd 5641 3cbd d00d ac3c
00000100: 7070 c23c 086c c6bd af2c aebd b351 a83d
00000110: f1d7 a8bd a48f 923d 6ebf a1bc ea66 853d
00000120: c93c a2bd a00a f53d ccbd eabd 45b7 d9bd
00000130: 608f 59bd ab65 13bd 9cc6 49bd 0937 f33c
00000140: 93c6 8f3d e42f 79bd eccf eb3d 00b3 453d
00000150: 8364 803d a300 5a3c 4ae3 40bd b665 d63d
00000160: 484c 58bd f737 3e3c 515c f33c 5813 f7bc
00000170: 000a 20bc 4087 6dbd 0f5b b33d 8ba3 b9bd
00000180: 3894 bbbc 4c6e 523d 279d a5bd 4ac0 99bd
00000190: 93a8 8b3d 107f c6ba 183a f3bd 08ff 5dbd
000001a0: 4002 f33b c007 293c ce1b e03d bbb2 c1bd
000001b0: 5f9e 6e3d 2de8 b93d 0d3c d1bd 0387 a0bd
000001c0: 5b19 f2bd 39e4 d13d 3963 1bbd 7f76 3e3b
000001d0: b07c 893c 8937 08be 1d50 0abe 5671 8bbd
000001e0: 4834 83bc c44f e8bd 5cbc cc3d 601a fc3c
000001f0: e7e3 2f3c e0c9 ce3d 5be7 cfbd ca15 dfbd
00000200: 0284 e7bd 608e e13b dd6a 9f3d cd0c ab3d
00000210: 05c4 bc3d e06c 943d 4630 4b3c 52c3 d13d
00000220: bb2a e0bd 8036 d9bd c078 233d 7753 94bd
00000230: 80c1 cebd 4224 4f3d 129a d9bd 1a6e 42bd
00000240: 12d3 6cbd 0a33 de3d 00f3 6ebb 9098 c2bd
00000250: 0540 94bd d295 5dbd f539 c2bd bca0 243d
00000260: 83ec c8bb 274d ddbd b6be bdbc 5325 9bbc
00000270: 98be 723d a44a 9c3d b87c c83c bb7a 4a3d
00000280: 2451 833d 28aa 49bd a6e5 91bd 1652 9d3c
00000290: 0669 60bb 15dd 923d 0442 813d 1c3b e93d
000002a0: 1043 513d 6eba 88bd 7029 9c3c 766a 3c3d
000002b0: 3bf6 b6bd c774 fe3c 5f4b bfbd 7e94 c43c
000002c0: 7714 6f3d 1b1a 9bbc fb68 ce3d 17e0 953d
000002d0: 808c 14bc e4b3 623d e6ef 0bbe eef5 babd
000002e0: c0f6 933b ec8c 46bd 1ee7 d2bd 6472 22bd
000002f0: 1bc6 a4bd 84a7 a1bd 6d53 8c3d 9024 b1bc
00000300: a08c a6bc 2218 b9bd 98df 573d b148 a0bd
00000310: 427e ebbd 2289 90bd e4a9 6cbd 8868 543d
00000320: 1710 1ebd 0453 923d dc04 55bd 2871 223d
00000330: 98a5 85bc a1fa 51bc f890 a23c ec2f 083d
00000340: 8cbb f23c ecf2 4fbd 3c9b 303d f091 0c3c
00000350: cf3b 02bc f772 fcbb 56a8 edbc 1e9e f33d
00000360: b959 f83c c962 11be 8635 a7bc 9460 e5bd
00000370: 6404 0fbd 801f 49bd e8c3 cdbd 9525 a1bd
00000380: 7409 4fbd daf7 fbbd 367e cc3d 6444 acbd
00000390: 8169 33bc 0c5a 243d d013 b0bd 648e a9bd
000003a0: 0024 56b9 d4d8 d2bd 88db 3e3d 32e4 d1bd
000003b0: 9027 95bc 396f fc3c ba1c 3d3d 3817 5b3d
000003c0: 140d 58bd 9e49 d6bd 188e 1e3d 3bd8 04be
000003d0: e03f 7b3d 540f 9c3d ec20 b7bd d472 8ebd
000003e0: 3048 78bc 08b8 c1bd 3e2a f5bd 6011 7dbc
000003f0: c444 403d 409f ba3c 8675 d3bd e415 cabd
-0.11101839 -0.122246325 -0.13008393 -0.021276932 0.058936507 -0.11026518 -0.09500802 -0.07544719
-0.06675581 0.11007626 -0.07459681 0.057886995 -0.020174474 0.022782417 -0.05258946 -0.10949213
0.007456706 0.12389341 -0.106931806 -0.03024757 -0.0047318954 -0.1379631 0.004709202 -0.110174984
-0.04686486 0.058630295 -0.006479795 0.04297217 -0.011280194 -0.041089535 -0.07917925 -0.02830763
-0.057002664 -0.054055333 0.10450149 0.020479204 0.025724696 -0.10947176 0.049680293 0.023813874
0.11186941 -0.030072853 -0.09770714 0.053287663 -0.09150451 -0.08449126 0.07511898 0.020918699
-0.01631218 0.06439472 0.094184004 -0.07259361 0.09062001 -0.0005721873 -0.02297826 -0.084161624
-0.052098334 -0.06929594 0.04863535 0.010680899 0.09347231 -0.11811346 -0.045960747 0.02100268
0.023735255 -0.09688574 -0.085046165 0.08218708 -0.082443126 0.071563035 -0.019744601 0.0651377
-0.0792175 0.11964917 -0.11461982 -0.10630659 -0.05311525 -0.03598563 -0.049261674 0.029689329
0.07020297 -0.060836688 0.11514267 0.04826641 0.06269171 0.013305816 -0.04709176 0.104686186
-0.052807122 0.011610023 0.029707106 -0.030160591 -0.009768009 -0.057990313 0.087576024 -0.090643965
-0.022897825 0.05137472 -0.08086615 -0.07507379 0.06819262 -0.0015144069 -0.11876315 -0.054198295
0.0074160397 0.010316789 0.10942803 -0.09457918 0.058256503 0.09077487 -0.10216532 -0.078382514
-0.118212424 0.10248608 -0.037936423 0.0029062328 0.016783088 -0.13302435 -0.13507123 -0.068087265
-0.01601614 -0.11343339 0.09996864 0.030774295 0.0107354885 0.10097098 -0.101515494 -0.10892828
-0.11304475 0.0068834275 0.077840544 0.08352051 0.09217075 0.07247329 0.012401646 0.102423325
-0.1094565 -0.10606098 0.039910078 -0.07242482 -0.10095501 0.050571688 -0.1062509 -0.047468282
-0.05781848 0.10849579 -0.0036460757 -0.09501755 -0.07238773 -0.054097958 -0.09483711 0.04019235
-0.00613171 -0.10805731 -0.023162227 -0.018938696 0.059263796 0.07631424 0.024473533 0.04943345
0.06411961 -0.04923454 -0.0712388 0.01920418 -0.0034242286 0.07171074 0.063114196 0.11388227
0.051089346 -0.06676184 0.019062728 0.045999967 -0.089336835 0.031061543 -0.09340548 0.023996588
0.058369126 -0.018933346 0.10078617 0.07318132 -0.009066701 0.05534734 -0.13665733 -0.091289386
0.004515499 -0.048474237 -0.10297988 -0.039659873 -0.08045598 -0.07893279 0.0685185 -0.02162388
-0.020330727 -0.09037806 0.05270347 -0.07826365 -0.11498691 -0.07057406 -0.057779208 0.0518575
-0.038589563 0.0714474 -0.052006587 0.039658695 -0.016314313 -0.012816102 0.019844517 0.033248827
0.029630445 -0.050768778 0.043116793 0.008579716 -0.00794883 -0.0077041346 -0.029010933 0.11895393
0.03031622 -0.1419784 -0.020411264 -0.112000614 -0.034916297 -0.049102306 -0.10047132 -0.07868496
-0.050546125 -0.12303133 0.0998501 -0.08411482 -0.010950447 0.040124938 -0.08597529 -0.08279112
-0.00020422041 -0.10295263 0.04659608 -0.10248603 -0.018207341 0.030814754 0.046169974 0.05348894
-0.052746847 -0.1046326 0.03870973 -0.1297311 0.061340213 0.07620111 -0.08941826 -0.069554955
-0.01515393 -0.09458929 -0.11970948 -0.015446037 0.04694058 0.022781014 -0.1032515 -0.098674566

bias f4 [64]
00000000: e418 c1bd 7b40 bfbc 755c 08be 44c4 5a3d
00000010: bf8a cf3d fc80 57bd 31bd dd3d 7c42 273b
00000020: 6a3b 043c 0b55 b33d b9bd 41bd 8f3d 06bc
00000030: 504c da3d d546 84bc dfd7 dbbd 8d89 e1bd
00000040: d86f a33d d8bc 893c 0c4e e1bc bc55 d63d
00000050: b346 b2bc b414 1e3d 7bf9 69bd f364 5b3d
00000060: 5161 15be 3154 c63d 1d75 12bd b445 ffbc
00000070: 62e0 28bc f544 42bd 4128 b3bd a307 c1bd
00000080: 12cf 113d eacc 693d 9c6e c8bd 4abd 8d3d
00000090: 444b 4a3d 1557 dbbb 259b 9c3d e850 debc
000000a0: 8a4c be3d a672 743d 1199 933d 4133 04be
000000b0: d5a5 51bc 2a66 81bd 9bc4 15bd 346c cbbd
000000c0: 64ef 9cbc d3af b6bd 5295 403d 6e8a a33d
000000d0: 2e17 48bd 870e 813d 779e 43bc 4d0b 95bd
000000e0: 41e0 b0bd d5d9 1cbe 6686 ab3a da20 1fbd
000000f0: 701a 5dbd 54e7 d43d f721 613b 83b2 1cbc
-0.09428576 -0.023346176 -0.1331652 0.05340983 0.101338856 -0.052613243 0.10827101 0.0025521806
0.008070806 0.08756455 -0.047300074 -0.008193388 0.10659087 -0.016147057 -0.107345335 -0.11012564
0.07980317 0.01681368 -0.027503036 0.10465571 -0.021762228 0.038593963 -0.05712269 0.05356307
-0.14587905 0.09684027 -0.03575622 -0.031161167 -0.010307403 -0.047429044 -0.08747912 -0.09425285
0.03559787 0.057080187 -0.09786722 0.0692087 0.049388185 -0.0066937306 0.07646779 -0.027138188
0.092919424 0.05967965 0.072069295 -0.12910177 -0.012795885 -0.063183144 -0.03656445 -0.099327475
-0.01915712 -0.089202546 0.047017403 0.07985388 -0.04885023 0.06301599 -0.011939636 -0.07277546
-0.08636523 -0.15317471 0.0013086319 -0.03884969 -0.05398029 0.10395685 0.003435252 -0.009564045

weight f4 [2, 64]
00000000: e677 c23b 0cd5 31bb c77d 3dbb d240 9bbb
00000010: 9dcd 053c 6744 3abc 3c4f 95bb de12 31bc
00000020: 535f b53a 0c91 33bc 3b92 41bc 2816 af3b
00000030: 5fad 073c 9462 43bc 6737 cc3a 0873 2dbc
00000040: eee8 0d3a f90e 7f3a 318c de3b eea6 43bb
00000050: 3a63 8abb 2466 54bb 1b27 38b9 2425 1a3b
00000060: 10e1 73bb 150e 013c c62c 193c 8437 5bbc
00000070: 89fd bd3a 1d83 52bc aab7 1a3c 25e4 033c
00000080: 1836 19ba dc0b 0bbc c741 e03a 963a 4ebb
00000090: 2c8f 54bc 6a0e df3a dfdf 5cbc 8454 bbbb
000000a0: 4c76 193b 9096 dd3b 7ae9 01bc cf0f c2bb
000000b0: bffe fdba 4873 b73b ad51 b0bb 9d27 cc3b
000000c0: 3230 e23b 8750 7dbb 77e0 b5bb e4bd 953b
000000d0: ce56 40bc d407 ad3b 1c1f 1d3c eaba 3bbb
000000e0: 9249 24bb 09ad 3fbb 9835 d0ba a5ed b0bb
000000f0: e9f5 85bb 4358 0d3b 50f6 57bb 6760 5e3b
00000100: 5246 f63b c101 b43b b19b bc3b 59d2 1a3b
00000110: ae10 f537 676b da3b de18 003c 2597 62bc
00000120: 6778 6abc be9a dd3b 157f b43b ffc4 993a
00000130: 81dc 13bc 7c9d a13b b8c0 cb3b 34b1 bfbb
00000140: 35ab 113a 135f 56ba 225f 67bc 6dbb 03bc
00000150: b1c9 bebb 1067 efbb 973a 1fbb 3a68 bd3b
00000160: 1dac a63a d2ae fd3b b9a7 39bc b0c8 48bc
00000170: 8690 fd3b 04d9 c4bb e30e 0fbc d2a0 30bb
00000180: 49ab 96bb 4dc7 023c 021e 15bc f292 a53b
00000190: 8e38 2abb 31f2 15bc 95e7 d4bb 8e08 89bb
000001a0: 832f 70bc b3f1 daba 25c8 f2ba 380e 81bb
000001b0: 6cd8 bdbb e2b9 97bb c302 f6bb abd3 4cbc
000001c0: a7d9 833b c635 763b 1d43 803a 20e2 d9bb
000001d0: 438b 51bc ba19 70bc 0e73 17bc dfa7 f73b
000001e0: 4358 5b3b 71c9 d3ba bc79 e9ba 870d 0fbc
000001f0: f351 68ba 59b8 80bb 79c8 c23b c262 b3bb
0.005934703 -0.0027135042 -0.002891408 -0.004737952 0.008166698 -0.011368847 -0.0045565646 -0.010807721
0.0013837613 -0.010959875 -0.011814649 0.0053432174 0.008281081 -0.011925358 0.0015580476 -0.010586508
0.00054134324 0.0009729709 0.0067916145 -0.0029854137 -0.0042232545 -0.0032409513 -0.00017562175 0.0023520673
-0.0037213005 0.007876893 0.009349054 -0.013379935 0.0014495115 -0.012848643 0.009443203 0.008049999
-0.00058445474 -0.008486714 0.0017109447 -0.0031468025 -0.012973588 0.0017017846 -0.013481109 -0.005716862
0.0023416458 0.006762333 -0.0079292 -0.0059222947 -0.0019378288 0.0055984594 -0.0053808303 0.006230308
0.006902718 -0.0038652734 -0.00555044 0.004569756 -0.011739446 0.005280474 0.009589937 -0.0028645345
-0.0025068265 -0.0029247424 -0.0015885113 -0.005399423 -0.0040881527 0.00215675 -0.003295321 0.0033931972
0.007515707 0.005493373 0.0057558645 0.0023623912 2.9214043e-05 0.0066656354 0.007818429 -0.013829981
-0.014310933 0.0067628315 0.0055083134 0.0011731683 -0.00902474 0.0049321037 0.006218042 -0.0058499817
0.0005556823 -0.00081776193 -0.0141218025 -0.008040291 -0.0058223833 -0.007305987 -0.0024296397 0.005780247
0.0012716089 0.0077417875 -0.011331492 -0.012254879 0.007738176 -0.0060073156 -0.008731577 -0.0026951325
-0.0045980555 0.007982087 -0.009101393 0.0050529176 -0.002597365 -0.009151981 -0.0064973333 -0.004181928
-0.014659765 -0.0016704112 -0.0018522782 -0.0039384626 -0.0057936218 -0.0046303133 -0.0075076534 -0.012501637
0.004023749 0.0037568673 0.0009785626 -0.0066492707 -0.01278955 -0.014654571 -0.00924374 0.0075578536
0.0033469356 -0.0016158057 -0.0017812769 -0.0087312525 -0.0008862309 -0.003928226 0.0059443084 -0.0054744193

bias f4 [2]
00000000: cc32 13bb a80a 72bb
-0.0022460697 -0.003693262
