srsRAN-4G-new-ER-design/edgeric/muApp1/rl_model/model_best.pt (torch, 22446 bytes, 7 tensors)

action_log_std f4 [1, 2]
-0.51231784 -0.7683439
00000000: 4327 03bf 30b2 44bf

weight f4 [64, 6]
0.05157158 -0.007870815 0.19771154 -0.21237306 -0.06855568 -0.36892933 -0.33799657 0.39788043
-0.19099204 0.1663338 -0.32259858 -0.38028386 0.17888156 -0.35746488 0.33797097 -0.2868407
0.40443733 -0.16036119 0.22973871 0.27781 0.08932018 -0.20407495 -0.30365008 0.32255596
0.2791577 0.06356459 -0.1532561 0.38383368 0.35231718 0.25090188 0.29251245 -0.09837842
0.05153435 -0.07989962 -0.40441617 -0.12420278 -0.2058201 -0.19414154 0.21961018 0.33789545
0.026311468 0.042321738 -0.34507117 -0.39898303 0.028516764 0.13812636 -0.1308283 -0.18996069
0.3425962 0.24268885 -0.036109496 0.054073114 -0.1396853 -0.0018265694 -0.039132882 -0.2763189
-0.06552621 0.39548287 0.17892049 -0.18374904 -0.2392992 0.17939733 0.005652476 -0.27259126
-0.09372771 -0.18965998 -0.20721582 0.36008948 0.38765365 0.3793748 -0.34366822 0.40088353
-0.04215924 -0.20706223 -0.35160592 -0.3067933 0.12792143 0.28000063 0.35644448 -0.39268264
0.2922162 0.022845794 0.12839861 -0.099164106 -0.34186682 0.33020315 -0.11385097 0.14940645
-0.08873043 -0.40066648 0.273369 -0.11685168 0.13286118 -0.28473532 0.24360666 0.361619
0.3426478 -0.09975064 0.36300397 -0.35070476 -0.3337447 -0.32786503 0.26099786 -0.09675961
-0.2616809 0.399615 0.16655329 0.00445668 -0.023494622 -0.4014376 0.050752275 -0.036087986
-0.24452798 -0.30278742 0.36681217 0.03698088 0.08335171 -0.11144614 -0.3417285 -0.18781789
-0.11728161 0.10960643 -0.018612398 -0.21260077 0.35629207 0.24236658 0.2852083 -0.073222265
0.016953439 0.23535581 -0.11948408 0.15871893 0.06745678 -0.20340905 0.28879565 -0.10528432
-0.2617009 -0.12896582 0.022845794 -0.27010867 -0.18546027 -0.05005804 -0.2917102 -0.25918564
0.19804083 0.01883179 0.37794083 -0.19584148 -0.209135 0.35812598 -0.25164455 -0.34529337
-0.07751289 -0.24901906 -0.3530126 0.31039792 0.24939896 0.37938172 -0.32645527 0.29211357
0.2564471 0.35433695 -0.24846679 -0.29424524 0.28695688 -0.34120202 -0.36709595 -0.117336355
-0.03412739 -0.3661331 -0.28456894 0.07246558 0.34803244 0.14140826 -0.20939016 0.33823875
-0.0055177175 0.09718068 -0.026801934 -0.25965178 0.32371286 0.30908093 0.30525702 -0.13611315
-0.39751172 -0.019043831 0.26250425 0.2174868 0.32290873 0.37026897 -0.08850491 0.29847583
0.37184325 0.08820936 -0.24333626 0.16084485 -0.11387171 0.12050662 -0.31453037 0.10873938
0.20130502 0.36829868 0.39870262 -0.31991294 0.24245194 0.11006239 0.24087942 0.26610264
0.31915283 -0.09406298 0.09536297 0.21088882 0.08630288 0.38519242 -0.30461234 0.052315213
-0.31135485 0.29899934 -0.376418 0.20217396 -0.29668614 0.3769917 0.29296035 -0.2817183
0.23877588 0.27647543 0.32280013 -0.1566658 0.14502199 -0.27692616 -0.27295107 0.35385486
0.31945556 0.13327217 0.1253233 0.07918012 0.10007647 0.36921033 0.025655972 -0.19082366
0.2160003 0.33343887 -0.3578828 -0.3029269 -0.04556914 0.27740422 -0.32883313 0.030288242
-0.3353071 -0.019535854 0.25150716 -0.16758385 -0.1640279 0.22073537 -0.03535584 -0.23361187
00000000: b93c 533d 97f4 00bc e574 4a3e 5378 59be
00000010: ec66 8cbd 4ee4 bcbe e30d adbe fcb6 cb3e
00000020: 6b93 43be 6853 2a3e a42b a5be 91b4 c2be
00000030: ba2c 373e a305 b7be 880a ad3e c9dc 92be
00000040: 6912 cf3e b935 24be a040 6b3e 1d3d 8e3e
00000050: 80ed b63d 06f9 50be 0678 9bbe 0e26 a53e
00000060: c2ed 8e3e 272e 823d 2bef 1cbe d985 c43e
00000070: eb62 b43e 3676 803e 31c4 953e a07a c9bd
00000080: af15 533d 69a2 a3bd a30f cfbe 075e febd
00000090: 81c2 52be 0acd 46be 7ee1 603e a200 ad3e
000000a0: 268b d73c 8f59 2d3d 2bad b0be 8147 ccbe
000000b0: fd9b e93c ff70 0d3e dbf7 05be 0e85 42be
000000c0: c568 af3e 6d83 783e 8de7 13bd c57b 5d3d
000000d0: aa09 0fbe 8069 efba cd49 20bd ac79 8dbe
000000e0: 9b32 86bd bb7c ca3e ef36 373e b528 3cbe
000000f0: d90a 75be efb3 373e 6838 b93b 1591 8bbe
00000100: 50f4 bfbd 3a36 42be 6230 54be a65d b83e
00000110: 8a7a c63e 6a3d c23e 48f5 afbe 9b40 cd3e
00000120: 2baf 2cbd 1f08 54be b105 b4be 0314 9dbe
00000130: d6fd 023e 3e5c 8f3e e47f b63e b30d c9be
00000140: 5d9d 953e 1a27 bb3c ed7a 033e 8d16 cbbd
00000150: 2b09 afbe 6310 a93e b32a e9bd 01fe 183e
00000160: 4db8 b5bd 2824 cdbe 06f7 8b3e ef4f efbd
00000170: c30c 083e d4c8 91be 0674 793e 2026 b93e
00000180: 886f af3e 104a ccbd a8db b93e 938f b3be
00000190: 96e0 aabe eddd a7be 83a1 853e e729 c6bd
000001a0: 0afb 85be 569a cc3e f28c 2a3e 5709 923b
000001b0: cb77 c0bc 3b89 cdbe 9ee1 4f3d ffd0 13bd
000001c0: 8b65 7abe f406 9bbe cece bb3e 4379 173d
000001d0: 4db4 aa3d e03d e4bd 0af7 aebe 5553 40be
000001e0: 5731 f0bd 5679 e03d 0779 98bc 04b4 59be
000001f0: ea6b b63e f22e 783e d306 923e 8ef5 95bd
00000200: f0e1 8a3c 1d01 713e 12b4 f4bd 3787 223e
00000210: c826 8a3d 764a 50be 06dd 933e 4e9f d7bd
00000220: a9fd 85be 9e0f 04be 1a27 bb3c af4b 8abe
00000230: 4ce9 3dbe a909 4dbd 0a5b 95be fbb3 84be
00000240: 37cb 4a3e 2045 9a3c 7681 c13e ab8a 48be
00000250: 7c27 56be 4a5c b73e 8ed7 80be 4bca b0be
00000260: 14bf 9ebd dafe 7ebe 11be b4be 7aec 9e3e
00000270: 7162 7f3e 523e c23e 2525 a7be e98f 953e
00000280: 094d 833e a76b b53e 146e 7ebe 50a7 96be
00000290: 03ec 923e 08b2 aebe 00f4 bbbe 0b4e f0bd
000002a0: 29c9 0bbd cc75 bbbe 05b3 91be d668 943d
000002b0: 4f31 b23e 54cd 103e 606a 56be a12d ad3e
000002c0: f8cd b4bb aa06 c73d bb8f dbbc 14f1 84be
000002d0: b1bd a53e db3f 9e3e a64a 9c3e 3f61 0bbe
000002e0: a886 cbbe cf01 9cbc f566 863e dcb4 5e3e
000002f0: 4b54 a53e e593 bd3e 1042 b5bd d3d1 983e
00000300: 3d62 be3e 1ca7 b43d 242d 79be 83b4 243e
00000310: 9235 e9bd 2dcc f63d 200a a1be c1b2 de3d
00000320: e722 4e3e a591 bc3e c022 cc3e a1cb a3be
00000330: 5245 783e 6468 e13d 18a9 763e 9b3e 883e
00000340: 0068 a33e 17a4 c0bd a94d c33d 3df3 573e
00000350: 90bf b03d f137 c53e 26f6 9bbe 7a48 563d
00000360: e769 9fbe 7116 993e dcb9 c0be b106 4f3e
00000370: 3fe7 97be 0e05 c13e e6fe 953e 623d 90be
00000380: aa81 743e 308e 8d3e 0f46 a53e 006d 20be
00000390: a580 143e 44c9 8dbe 3ec0 8bbe 772c b53e
000003a0: ae8f a33e 8078 083e c054 003e 3029 a23d
000003b0: e4f4 cc3d 2309 bd3e 792c d23c 4767 43be
000003c0: 2f2f 5d3e 80b8 aa3e 6a3c b7be 3c19 9bbe
000003d0: b5a6 3abd ed07 8e3e d15c a8be 0c1f f83c
000003e0: 5fad abbe a809 a0bc 8cc5 803e 1a9b 2bbe
000003f0: eef6 27be 7408 623e 49d1 10bd f337 6fbe

bias f4 [64]
-0.29117134 0.36728534 -0.28365642 0.12158674 -0.3546986 0.016187906 0.12376147 0.3757977
0.27492416 0.17774498 0.0014587444 -0.2666697 0.11546127 0.08907602 0.05543472 -0.1267372
-0.13451785 0.3957384 0.0525148 0.2648588 -0.2821094 -0.2540321 0.35618097 -0.014557562
-0.17199913 0.40123236 -0.17352064 0.33918402 0.3020072 0.1136693 0.38515836 0.39106482
0.13943842 0.20483522 0.044917103 -0.18449369 0.07425405 0.014429908 -0.18809344 -0.09108461
-0.01592048 0.23967145 -0.09586171 -0.17038192 0.13496009 0.2102819 -0.34318632 -0.13472998
-0.114148766 0.07535524 -0.15685113 0.059984352 0.026289226 -0.05723535 0.19313096 0.01696327
-0.29359388 -0.33844382 0.20769563 -0.36414576 -0.06036118 -0.09383726 0.18436672 0.11575589
00000000: 6914 95be d30c bc3e 6a3b 91be 7802 f93d
00000010: 0e9b b5be 809c 843c a776 fd3d 8e68 c03e
00000020: dcc2 8c3e c802 363e 5733 bf3a ee88 88be
00000030: f576 ec3d 7d6d b63d 840f 633d 66c7 01be
00000040: 0cbf 09be 399e ca3e c219 573d 939b 873e
00000050: a570 90be 7f10 82be 5a5d b63e d782 6ebc
00000060: 8a20 30be 546e cd3e 65af 31be 87a9 ad3e
00000070: b0a0 9a3e 73cb e83d 7a33 c53e a639 c83e
00000080: f2c8 0e3e 53c0 513e fffa 373d eaeb 3cbe
00000090: 8212 983d 6c6b 6c3c 919b 40be 918a babd
000000a0: ab6b 82bc 6f6c 753e 2553 c4bd 9978 2ebe
000000b0: fa32 0a3e 2354 573e 1eb6 afbe a8f6 09be
000000c0: d4c6 e9bd d953 9a3d 959d 20be 27b2 753d
000000d0: 815c d73c 9d6f 6abd 1fc4 453e 8ef6 8a3c
000000e0: f051 96be 8248 adbe 2aae 543e 5071 babe
000000f0: 493d 77bd c02d c0bd a1ca 3c3e 6d11 ed3d

weight f4 [64, 64]
-0.11101839 -0.122246325 -0.150095 -0.04128837 0.038924813 -0.11026518 -0.11502032 -0.07544719
-0.08887093 0.11007626 -0.07459681 0.037875183 -0.020174474 0.0027708663 -0.05258946 -0.1295042
-0.012554871 0.12389341 -0.106931806 -0.03024757 -0.024743587 -0.15797414 -0.015302387 -0.110174984
-0.06687692 0.0386186 -0.026491527 0.022960365 -0.011280194 -0.041089535 -0.09919155 -0.04831931
-0.057002664 -0.054055333 0.0844892 0.00046762248 0.16625549 -0.12948386 0.049680293 0.023813874
0.11186941 -0.030072853 -0.09770714 0.033275865 -0.1115168 -0.10450356 0.05510678 0.00090714183
-0.03632365 0.04438275 0.07417171 -0.092605904 0.09062001 -0.020583823 -0.042989716 -0.084161624
-0.052098334 -0.06929594 0.04863535 0.010680899 0.07346001 -0.11811346 -0.065972686 0.02100268
0.023735255 -0.09688574 -0.18518491 -0.017951395 -0.18258224 0.071563035 -0.119883224 0.0651377
-0.18151967 0.11964917 -0.11461982 -0.20644565 -0.05311525 -0.13612391 -0.049261674 -0.07044934
-0.029935753 -0.060836688 0.11514267 0.04826641 -0.037446827 -0.086832106 -0.1472305 0.104686186
-0.15294592 -0.0885278 -0.070431545 -0.13029926 -0.009768009 -0.057990313 -0.012562396 -0.19078247
-0.022897825 0.05137472 -0.18100493 -0.17521258 0.1804802 -0.10165253 -0.11876315 -0.054198295
0.0074160397 0.010316789 0.10942803 -0.19471802 -0.041881964 -0.009363474 -0.20230453 -0.17852132
-0.2183515 0.002348403 -0.13807479 -0.097231686 0.016783088 -0.23316352 -0.2352104 -0.068087265
-0.01601614 -0.11343339 0.09996864 0.030774295 -0.08940233 0.10097098 -0.20165469 -0.10892828
-0.11304475 0.0068834275 -0.015028197 -0.009348217 -0.00069804816 0.07247329 -0.08046721 0.102423325
-0.20435688 -0.10606098 0.039910078 -0.16529389 -0.10095501 -0.04229711 -0.1062509 -0.14033662
-0.15068664 0.10849579 -0.0036460757 -0.09501755 -0.16525678 -0.14696617 -0.18770601 0.04019235
-0.09900026 -0.20092614 -0.11603038 -0.11180718 0.059263796 0.07631424 -0.06839506 -0.043435246
0.06411961 -0.04923454 -0.16410793 -0.07366444 0.10449651 -0.021158043 0.063114196 0.11388227
0.051089346 -0.06676184 0.019062728 -0.046868637 -0.1822059 -0.061807193 -0.18627454 -0.068871975
-0.034499638 -0.11180183 0.007917128 -0.019687453 -0.009066701 -0.037521385 -0.22952615 -0.091289386
0.004515499 -0.048474237 -0.10297988 -0.039659873 -0.17332463 -0.07893279 -0.024350284 -0.02162388
-0.020330727 -0.09037806 -0.06372425 -0.19469178 -0.23141494 -0.07057406 -0.17420802 0.0518575
-0.15678938 0.0714474 -0.052006587 -0.07676934 -0.016314313 -0.1292435 0.019844517 -0.08317907
-0.08679758 -0.050768778 0.043116793 0.008579716 -0.12437641 -0.12413177 -0.14543906 0.11895393
-0.086111784 -0.25840595 -0.13683906 -0.22842863 -0.034916297 -0.049102306 -0.21689951 -0.19511303
-0.050546125 -0.12303133 -0.016577724 -0.20054308 0.08081902 -0.07630314 -0.08597529 -0.08279112
-0.00020422041 -0.10295263 0.04659608 -0.21891421 -0.13463506 -0.08561319 -0.07025792 -0.062938824
-0.16917557 -0.22106084 -0.07771821 -0.24615923 0.061340213 -0.040226478 -0.2058464 -0.069554955
-0.01515393 -0.09458929 -0.11970948 -0.015446037 -0.06948732 0.022781014 -0.21967968 -0.098674566
00000000: 9c5d e3bd 485c fabd 81b2 19be fe1d 29bd
00000010: a06f 1f3d b6d2 e1bd c68f ebbd 0e84 9abd
00000020: f601 b6bd aa6f e13d 36c6 98bd 0223 1b3d
00000030: f044 a5bc 6c97 353b 0c68 57bd c09c 04be
00000040: f2b2 4dbc d4bb fd3d 10ff dabd c0c9 f7bc
00000050: 10b3 cabc f9c3 21be ddb6 7abc 6ca3 e1bd
00000060: c4f6 88bd 8a2e 1e3d c204 d9bc 6017 bc3c
00000070: 90d0 38bc 804d 28bd f024 cbbd 78ea 45bd
00000080: a07b 69bd 2069 5dbd ac08 ad3d 3a2b f539
00000090: e13e 2a3e 6b97 04be 907d 4b3d 5015 c33c
000000a0: ca1b e53d 585b f6bc ae1a c8bd 464c 083d
000000b0: ec62 e4bd f605 d6bd a6b7 613d 42cd 6d3a
000000c0: 1cc8 14bd b0ca 353d 56e7 973d 2aa8 bdbd
000000d0: fc96 b93d 689f a8bc fc15 30bd ee5c acbd
000000e0: 1065 55bd 08eb 8dbd dc35 473d f0fe 2e3c
000000f0: 3472 963d 78e5 f1bd b01c 87bd d00d ac3c
00000100: 7070 c23c 086c c6bd 1da1 3dbe ce0e 93bc
00000110: d7f6 3abe a48f 923d 5685 f5bd ea66 853d
00000120: 4be0 39be a00a f53d ccbd eabd 7d66 53be
00000130: 608f 59bd 1164 0bbe 9cc6 49bd be47 90bd
00000140: d33b f5bc e42f 79bd eccf eb3d 00b3 453d
00000150: d861 19bd 08d5 b1bd 98c3 16be b665 d63d
00000160: db9d 1cbe 104e b5bd 6a3e 90bd 2b6d 05be
00000170: 000a 20bc 4087 6dbd 82d2 4dbc 7b5c 43be
00000180: 3894 bbbc 4c6e 523d 5b59 39be ed6a 33be
00000190: cdcf 383e 342f d0bd 183a f3bd 08ff 5dbd
000001a0: 4002 f33b c007 293c ce1b e03d 2964 47be
000001b0: 6c8c 2bbd 4269 19bc eb28 4fbe 4bce 36be
000001c0: 8997 5fbe aae7 193b 7a63 0dbe 6821 c7bd
000001d0: b07c 893c 6bc2 6ebe ffda 70be 5671 8bbd
000001e0: 4834 83bc c44f e8bd 5cbc cc3d 601a fc3c
000001f0: 9218 b7bd e0c9 ce3d 917e 4ebe ca15 dfbd
00000200: 0284 e7bd 608e e13b d438 76bc 4429 19bc
00000210: 38fd 36ba e06c 943d fecb a4bd 52c3 d13d
00000220: ee42 51be 8036 d9bd c078 233d cd42 29be
00000230: 80c1 cebd bc3f 2dbd 129a d9bd 67b4 0fbe
00000240: 994d 1abe 0a33 de3d 00f3 6ebb 9098 c2bd
00000250: 1339 29be 4d7e 16be 0136 40be bca0 243d
00000260: a6c0 cabd 95bf 4dbe 56a1 edbd 2afb e4bd
00000270: 98be 723d a44a 9c3d b612 8cbd 28e9 31bd
00000280: 2451 833d 28aa 49bd e90b 28be 62dd 96bd
00000290: 4402 d63d a253 adbc 0442 813d 1c3b e93d
000002a0: 1043 513d 6eba 88bd 7029 9c3c 54f9 3fbd
000002b0: 2f94 3abe 8a29 7dbd c1be 3ebe c00c 8dbd
000002c0: 7e4f 0dbd 5cf8 e4bd d7b6 013c 9547 a1bc
000002d0: 808c 14bc 06b0 19bd e708 6bbe eef5 babd
000002e0: c0f6 933b ec8c 46bd 1ee7 d2bd 6472 22bd
000002f0: 037c 31be 84a7 a1bd 3f7a c7bc 9024 b1bc
00000300: a08c a6bc 2218 b9bd dc81 82bd 485d 47be
00000310: 0af8 6cbe 2289 90bd 9663 32be 8868 543d
00000320: 658d 20be 0453 923d dc04 55bd 3e39 9dbd
00000330: 98a5 85bc 6858 04be f890 a23c ca59 aabd
00000340: eec2 b1bd ecf2 4fbd 3c9b 303d f091 0c3c
00000350: 0fb9 febd cc38 febd faed 14be 1e9e f33d
00000360: 605b b0bd c94d 84be 8a1f 0cbe 32e9 69be
00000370: 6404 0fbd 801f 49bd e81a 5ebe b6cb 47be
00000380: 7409 4fbd daf7 fbbd 02ce 87bc 2a5b 4dbe
00000390: 7184 a53d d244 9cbd d013 b0bd 648e a9bd
000003a0: 0024 56b9 d4d8 d2bd 88db 3e3d 0c2b 60be
000003b0: c6dd 09be f855 afbd 62e3 8fbd 12e6 80bd
000003c0: 5c3c 2dbe c65d 62be ba2a 9fbd 2a11 7cbe
000003d0: e03f 7b3d 85c4 24bd 66c9 52be d472 8ebd
000003e0: 3048 78bc 08b8 c1bd 3e2a f5bd 6011 7dbc
000003f0: 5e4f 8ebd 409f ba3c b6f3 60be e415 cabd

bias f4 [64]
-0.114298075 -0.1234851 -0.22603412 -0.06301794 0.11458387 -0.17565162 0.017066078 -0.002981924
0.07114817 -0.03859191 -0.16671179 0.010804796 0.1780606 -0.13373205 -0.13584672 -0.16364895
-0.016531775 -0.06611083 0.044403598 0.08926096 -0.053833686 0.02743769 -0.14449698 0.009412494
-0.26451695 0.080404244 -0.035103127 -0.06513709 -0.066603966 -0.09675148 -0.014554714 -0.055942785
0.021377187 -0.0525061 -0.072620474 -0.02312393 -0.017213441 0.05471697 0.07621749 -0.10475322
0.15510999 0.09091911 -0.02191782 -0.21337739 -0.053713426 0.001351851 -0.0114056375 -0.013353804
-0.009232646 -0.19545756 -0.06646319 0.137568 -0.09575344 0.08276432 0.076091915 -0.16731142
-0.19515708 -0.2583304 -0.1003174 -0.062050413 -0.16238207 0.0765728 -0.10024096 0.029662883
00000000: 1c15 eabd c2e5 fcbd 7d75 67be 8d0f 81bd
00000010: f3aa ea3d 05de 33be 29ce 8b3c 626c 43bb
00000020: 22b6 913d 8d12 1ebd 7fb6 2abe 9906 313c
00000030: 8555 363e 0ef1 08be 671b 0bbe 9793 27be
00000040: a56d 87bc 1d65 87bd 8ce0 353d 73ce b63d
00000050: b680 5cbd 02c5 e03c 04f7 13be dc36 1a3c
00000060: c46e 87be fbaa a43d 4cc8 0fbd 9866 85bd
00000070: a967 88bd a425 c6bd e576 6ebc 4324 65bd
00000080: 361f af3c a310 57bd 0bba 94bd 656e bdbc
00000090: 3403 8dbc e71e 603d ea17 9c3d db88 d6bd
000000a0: 27d5 1e3e cc33 ba3d 008d b3bc 9a7f 5abe
000000b0: 9c02 5cbd 9830 b13a b6de 3abc eac9 5abc
000000c0: 8644 17bc 0726 48be da1d 88bd a0de 0c3e
000000d0: 611a c4bd 5780 a93d 14d6 9b3d af53 2bbe
000000e0: 42d7 47be e243 84be 3673 cdbd 9328 7ebd
000000f0: 7c47 26be 33d2 9c3d 224b cdbd 93ff f23c

weight f4 [2, 64]
0.051543407 0.028774176 0.031265978 0.026107006 0.061431285 0.023695216 0.03156529 0.050149
0.07489434 0.022099582 0.024982259 0.06403435 0.081224374 0.02533406 0.049498174 0.038307104
0.029714357 0.032415207 0.08042506 0.04952765 0.045449726 0.051372617 0.030369524 0.04362755
0.0257945 0.05301599 0.05723031 0.041420866 0.03999512 0.039203092 0.082312256 0.069832005
0.051545892 0.027859634 0.06289118 0.032156862 0.036044754 0.075229086 0.05350747 0.03262804
0.07500156 0.067340724 0.029750964 0.0308512 0.042333517 0.07843866 0.062613495 0.08490224
0.061253533 0.029139692 0.02800159 0.07527183 0.037861295 0.062195536 0.08776917 0.029860655
0.026968595 0.027467357 0.027841903 0.046536025 0.02798021 0.046872504 0.02752849 0.06888138
-0.026754674 -0.016223732 -0.01765132 -0.015567694 -0.03533088 -0.013775083 -0.018129911 -0.039534383
-0.057003435 -0.013685405 -0.014776455 -0.037278857 -0.054328624 -0.01548391 -0.027374273 -0.026051516
-0.016882844 -0.018828198 -0.05820855 -0.03329388 -0.029819356 -0.034383174 -0.017973784 -0.024064127
-0.015267666 -0.026817458 -0.03569046 -0.031982612 -0.021523833 -0.027432578 -0.05432066 -0.04229133
-0.03317368 -0.015964331 -0.042900573 -0.018444702 -0.023976365 -0.053421687 -0.04109885 -0.020588309
-0.056628764 -0.040507857 -0.01798963 -0.019240798 -0.027067073 -0.05068789 -0.04547815 -0.061825592
-0.033806145 -0.01685459 -0.016685663 -0.0500753 -0.028305441 -0.042947304 -0.059152782 -0.016462706
-0.015826844 -0.016198944 -0.017072577 -0.032156732 -0.01626895 -0.028684802 -0.015863195 -0.044961233
00000000: 2e1f 533d d2b7 eb3c c110 003d 5cde d53c
00000010: 5f9f 7b3d 781c c23c 9b4a 013d 0a69 4d3d
00000020: 3462 993d 2f0a b53c 98a7 cc3c 7124 833d
00000030: f758 a63d 6089 cf3c 99be 4a3d e9e7 1c3d
00000040: 866b f33c cfc5 043d e5b5 a43d 81dd 4a3d
00000050: 7e29 3a3d 186c 523d 82c9 f83c cdb2 323d
00000060: fd4e d33c 4b27 593d 546a 6a3d eda8 293d
00000070: ecd1 233d 6c93 203d 5493 a83d 1504 8f3d
00000080: c921 533d e339 e43c 17cd 803d eab6 033d
00000090: aaa3 133d b511 9a3d a62a 5b3d fba4 053d
000000a0: 6b9a 993d efe9 893d 4bb8 f33c a8bb fc3c
000000b0: e965 2d3d 73a4 a03d 813b 803d 3ae1 ad3d
000000c0: fce4 7a3d 5db6 ee3c 9763 e53c 1e28 9a3d
000000d0: 7214 1b3d bfc0 7e3d 53c0 b33d 559e f43c
000000e0: 3eed dc3c 3903 e13c b414 e43c 8f9c 3e3d
000000f0: c136 e53c 62fd 3f3d 6e83 e13c ae11 8d3d
00000100: 9e2c dbbc a2e7 84bc 8099 90bc a40f 7fbc
00000110: 1db7 10bd e3b0 61bc 2e85 94bc ceee 21bd
00000120: 6f7c 69bd c038 60bc f218 72bc b7b1 18bd
00000130: b187 5ebd 3ab0 7dbc 0340 e0bc fd69 d5bc
00000140: e44d 8abc 983d 9abc 176c 6ebd 2a5f 08bd
00000150: b947 f4bc 5fd5 0cbd c23d 93bc 2222 c5bc
00000160: 3c25 7abc 49b0 dbbc 2930 12bd 3300 03bd
00000170: c052 b0bc 49ba e0bc 577f 5ebd ac39 2dbd
00000180: 20e1 07bd a1c7 82bc 83b8 2fbd 5819 97bc
00000190: 156a c4bc b3d0 5abd 4557 28bd d0a8 a8bc
000001a0: 90f3 67bd 91eb 25bd fd5e 93bc e19e 9dbc
000001b0: c4bb ddbc 1b9e 4fbd 4c47 3abd d53c 7dbd
000001c0: 5078 0abd a312 8abc 5fb0 88bc c21b 4dbd
000001d0: d0e0 e7bc 83e9 2fbd 304a 72bd ccdc 86bc
000001e0: 4ca7 81bc a6b3 84bc cadb 8bbc c7b6 03bd
000001f0: 7646 85bc 64fc eabc 88f3 81bc 4529 38bd

bias f4 [2]
0.080853045 -0.058270708
00000000: 4896 a53d 44ad 6ebd
