Pytorch-RL-Custom_demo/rl_model/srsRANWorkshop/model_15.pt (torch, 22428 bytes, 7 tensors)

action_log_std f4 [1, 2]
00000000: 00c8 92bd 850c 92be
-0.07167053 -0.28525177

weight f4 [64, 6]
00000000: b93c 533d 97f4 00bc e574 4a3e 5378 59be
00000010: ec66 8cbd 4ee4 bcbe e30d adbe fcb6 cb3e
00000020: 6b93 43be 6853 2a3e a42b a5be 91b4 c2be
00000030: ba2c 373e a305 b7be 880a ad3e c9dc 92be
00000040: 6912 cf3e b935 24be a040 6b3e 1d3d 8e3e
00000050: 80ed b63d 06f9 50be 0678 9bbe 0e26 a53e
00000060: c2ed 8e3e 272e 823d 2bef 1cbe d985 c43e
00000070: eb62 b43e 3676 803e 31c4 953e a07a c9bd
00000080: af15 533d 69a2 a3bd a30f cfbe 075e febd
00000090: 81c2 52be 0acd 46be 7ee1 603e a200 ad3e
000000a0: 268b d73c 8f59 2d3d 2bad b0be 8147 ccbe
000000b0: fd9b e93c ff70 0d3e dbf7 05be 0e85 42be
000000c0: c568 af3e 6d83 783e 8de7 13bd c57b 5d3d
000000d0: aa09 0fbe 8069 efba cd49 20bd ac79 8dbe
000000e0: 9b32 86bd bb7c ca3e ef36 373e b528 3cbe
000000f0: d90a 75be efb3 373e 6838 b93b 1591 8bbe
00000100: 50f4 bfbd 3a36 42be 6230 54be a65d b83e
00000110: 8a7a c63e 6a3d c23e 48f5 afbe 9b40 cd3e
00000120: 2baf 2cbd 1f08 54be b105 b4be 0314 9dbe
00000130: d6fd 023e 3e5c 8f3e e47f b63e b30d c9be
00000140: 5d9d 953e 1a27 bb3c ed7a 033e 8d16 cbbd
00000150: 2b09 afbe 6310 a93e b32a e9bd 01fe 183e
00000160: 4db8 b5bd 2824 cdbe 06f7 8b3e ef4f efbd
00000170: c30c 083e d4c8 91be 0674 793e 2026 b93e
00000180: 886f af3e 104a ccbd a8db b93e 938f b3be
00000190: 96e0 aabe eddd a7be 83a1 853e e729 c6bd
000001a0: 0afb 85be 569a cc3e f28c 2a3e 5709 923b
000001b0: cb77 c0bc 3b89 cdbe 9ee1 4f3d ffd0 13bd
000001c0: 8b65 7abe f406 9bbe cece bb3e 4379 173d
000001d0: 4db4 aa3d e03d e4bd 0af7 aebe 5553 40be
000001e0: 5731 f0bd 5679 e03d 0779 98bc 04b4 59be
000001f0: ea6b b63e f22e 783e d306 923e 8ef5 95bd
00000200: f0e1 8a3c 1d01 713e 12b4 f4bd 3787 223e
00000210: c826 8a3d 764a 50be 06dd 933e 4e9f d7bd
00000220: a9fd 85be 9e0f 04be 1a27 bb3c af4b 8abe
00000230: 4ce9 3dbe a909 4dbd 0a5b 95be fbb3 84be
00000240: 37cb 4a3e 2045 9a3c 7681 c13e ab8a 48be
00000250: 7c27 56be 4a5c b73e 8ed7 80be 4bca b0be
00000260: 14bf 9ebd dafe 7ebe 11be b4be 7aec 9e3e
00000270: 7162 7f3e 523e c23e 2525 a7be e98f 953e
00000280: 094d 833e a76b b53e 146e 7ebe 50a7 96be
00000290: 03ec 923e 08b2 aebe 00f4 bbbe 0b4e f0bd
000002a0: 29c9 0bbd cc75 bbbe 05b3 91be d668 943d
000002b0: 4f31 b23e 54cd 103e 606a 56be a12d ad3e
000002c0: f8cd b4bb aa06 c73d bb8f dbbc 14f1 84be
000002d0: b1bd a53e db3f 9e3e a64a 9c3e 3f61 0bbe
000002e0: a886 cbbe cf01 9cbc f566 863e dcb4 5e3e
000002f0: 4b54 a53e e593 bd3e 1042 b5bd d3d1 983e
00000300: 3d62 be3e 1ca7 b43d 242d 79be 83b4 243e
00000310: 9235 e9bd 2dcc f63d 200a a1be c1b2 de3d
00000320: e722 4e3e a591 bc3e c022 cc3e a1cb a3be
00000330: 5245 783e 6468 e13d 18a9 763e 9b3e 883e
00000340: 0068 a33e 17a4 c0bd a94d c33d 3df3 573e
00000350: 90bf b03d f137 c53e 26f6 9bbe 7a48 563d
00000360: e769 9fbe 7116 993e dcb9 c0be b106 4f3e
00000370: 3fe7 97be 0e05 c13e e6fe 953e 623d 90be
00000380: aa81 743e 308e 8d3e 0f46 a53e 006d 20be
00000390: a580 143e 44c9 8dbe 3ec0 8bbe 772c b53e
000003a0: ae8f a33e 8078 083e c054 003e 3029 a23d
000003b0: e4f4 cc3d 2309 bd3e 792c d23c 4767 43be
000003c0: 2f2f 5d3e 80b8 aa3e 6a3c b7be 3c19 9bbe
000003d0: b5a6 3abd ed07 8e3e d15c a8be 0c1f f83c
000003e0: 5fad abbe a809 a0bc 8cc5 803e 1a9b 2bbe
000003f0: eef6 27be 7408 623e 49d1 10bd f337 6fbe
0.05157158 -0.007870815 0.19771154 -0.21237306 -0.06855568 -0.36892933 -0.33799657 0.39788043
-0.19099204 0.1663338 -0.32259858 -0.38028386 0.17888156 -0.35746488 0.33797097 -0.2868407
0.40443733 -0.16036119 0.22973871 0.27781 0.08932018 -0.20407495 -0.30365008 0.32255596
0.2791577 0.06356459 -0.1532561 0.38383368 0.35231718 0.25090188 0.29251245 -0.09837842
0.05153435 -0.07989962 -0.40441617 -0.12420278 -0.2058201 -0.19414154 0.21961018 0.33789545
0.026311468 0.042321738 -0.34507117 -0.39898303 0.028516764 0.13812636 -0.1308283 -0.18996069
0.3425962 0.24268885 -0.036109496 0.054073114 -0.1396853 -0.0018265694 -0.039132882 -0.2763189
-0.06552621 0.39548287 0.17892049 -0.18374904 -0.2392992 0.17939733 0.005652476 -0.27259126
-0.09372771 -0.18965998 -0.20721582 0.36008948 0.38765365 0.3793748 -0.34366822 0.40088353
-0.04215924 -0.20706223 -0.35160592 -0.3067933 0.12792143 0.28000063 0.35644448 -0.39268264
0.2922162 0.022845794 0.12839861 -0.099164106 -0.34186682 0.33020315 -0.11385097 0.14940645
-0.08873043 -0.40066648 0.273369 -0.11685168 0.13286118 -0.28473532 0.24360666 0.361619
0.3426478 -0.09975064 0.36300397 -0.35070476 -0.3337447 -0.32786503 0.26099786 -0.09675961
-0.2616809 0.399615 0.16655329 0.00445668 -0.023494622 -0.4014376 0.050752275 -0.036087986
-0.24452798 -0.30278742 0.36681217 0.03698088 0.08335171 -0.11144614 -0.3417285 -0.18781789
-0.11728161 0.10960643 -0.018612398 -0.21260077 0.35629207 0.24236658 0.2852083 -0.073222265
0.016953439 0.23535581 -0.11948408 0.15871893 0.06745678 -0.20340905 0.28879565 -0.10528432
-0.2617009 -0.12896582 0.022845794 -0.27010867 -0.18546027 -0.05005804 -0.2917102 -0.25918564
0.19804083 0.01883179 0.37794083 -0.19584148 -0.209135 0.35812598 -0.25164455 -0.34529337
-0.07751289 -0.24901906 -0.3530126 0.31039792 0.24939896 0.37938172 -0.32645527 0.29211357
0.2564471 0.35433695 -0.24846679 -0.29424524 0.28695688 -0.34120202 -0.36709595 -0.117336355
-0.03412739 -0.3661331 -0.28456894 0.07246558 0.34803244 0.14140826 -0.20939016 0.33823875
-0.0055177175 0.09718068 -0.026801934 -0.25965178 0.32371286 0.30908093 0.30525702 -0.13611315
-0.39751172 -0.019043831 0.26250425 0.2174868 0.32290873 0.37026897 -0.08850491 0.29847583
0.37184325 0.08820936 -0.24333626 0.16084485 -0.11387171 0.12050662 -0.31453037 0.10873938
0.20130502 0.36829868 0.39870262 -0.31991294 0.24245194 0.11006239 0.24087942 0.26610264
0.31915283 -0.09406298 0.09536297 0.21088882 0.08630288 0.38519242 -0.30461234 0.052315213
-0.31135485 0.29899934 -0.376418 0.20217396 -0.29668614 0.3769917 0.29296035 -0.2817183
0.23877588 0.27647543 0.32280013 -0.1566658 0.14502199 -0.27692616 -0.27295107 0.35385486
0.31945556 0.13327217 0.1253233 0.07918012 0.10007647 0.36921033 0.025655972 -0.19082366
0.2160003 0.33343887 -0.3578828 -0.3029269 -0.04556914 0.27740422 -0.32883313 0.030288242
-0.3353071 -0.019535854 0.25150716 -0.16758385 -0.1640279 0.22073537 -0.03535584 -0.23361187

bias f4 [64]
00000000: 6914 95be d30c bc3e 6a3b 91be 7802 f93d
00000010: 0e9b b5be 809c 843c a776 fd3d 8e68 c03e
00000020: dcc2 8c3e c802 363e 5733 bf3a ee88 88be
00000030: f576 ec3d 7d6d b63d 840f 633d 66c7 01be
00000040: 0cbf 09be 399e ca3e c219 573d 939b 873e
00000050: a570 90be 7f10 82be 5a5d b63e d782 6ebc
00000060: 8a20 30be 546e cd3e 65af 31be 87a9 ad3e
00000070: b0a0 9a3e 73cb e83d 7a33 c53e a639 c83e
00000080: f2c8 0e3e 53c0 513e fffa 373d eaeb 3cbe
00000090: 8212 983d 6c6b 6c3c 919b 40be 918a babd
000000a0: ab6b 82bc 6f6c 753e 2553 c4bd 9978 2ebe
000000b0: fa32 0a3e 2354 573e 1eb6 afbe a8f6 09be
000000c0: d4c6 e9bd d953 9a3d 959d 20be 27b2 753d
000000d0: 815c d73c 9d6f 6abd 1fc4 453e 8ef6 8a3c
000000e0: f051 96be 8248 adbe 2aae 543e 5071 babe
000000f0: 493d 77bd c02d c0bd a1ca 3c3e 6d11 ed3d
-0.29117134 0.36728534 -0.28365642 0.12158674 -0.3546986 0.016187906 0.12376147 0.3757977
0.27492416 0.17774498 0.0014587444 -0.2666697 0.11546127 0.08907602 0.05543472 -0.1267372
-0.13451785 0.3957384 0.0525148 0.2648588 -0.2821094 -0.2540321 0.35618097 -0.014557562
-0.17199913 0.40123236 -0.17352064 0.33918402 0.3020072 0.1136693 0.38515836 0.39106482
0.13943842 0.20483522 0.044917103 -0.18449369 0.07425405 0.014429908 -0.18809344 -0.09108461
-0.01592048 0.23967145 -0.09586171 -0.17038192 0.13496009 0.2102819 -0.34318632 -0.13472998
-0.114148766 0.07535524 -0.15685113 0.059984352 0.026289226 -0.05723535 0.19313096 0.01696327
-0.29359388 -0.33844382 0.20769563 -0.36414576 -0.06036118 -0.09383726 0.18436672 0.11575589

weight f4 [64, 64]
00000000: 9c5d e3bd 485c fabd 46cb 06be 5a00 bbbc
00000010: 970d 6b3d b6d2 e1bd 9ac0 c5bd 0e84 9abd
00000020: 2ba8 8fbd aa6f e13d 36c6 98bd 19c1 663d
00000030: f044 a5bc a0ee ad3c 0c68 57bd 726a e3bd
00000040: e688 c13b d4bb fd3d 10ff dabd c0c9 f7bc
00000050: 82dc cdbb c0dc 0ebe 2502 4f3b 6ca3 e1bd
00000060: 2f4f 46bd 81cc 693d a591 03bc cda9 293d
00000070: 90d0 38bc 804d 28bd c455 a5bd 0299 f4bc
00000080: a07b 69bd 2069 5dbd d8d7 d23d 6210 9b3c
00000090: 7bc5 4b3e c45f e3bd 907d 4b3d 5015 c33c
000000a0: ca1b e53d 585b f6bc ae1a c8bd 59ea 533d
000000b0: c093 bebd ca36 b0bd f4aa 963d 26aa 9e3c
000000c0: 9254 92bc 79b4 803d 82b6 bd3d fed8 97bd
000000d0: fc96 b93d 131d 0bbb 4ef0 c8bc ee5c acbd
000000e0: 1065 55bd 08eb 8dbd dc35 473d f0fe 2e3c
000000f0: 6041 bc3d 78e5 f1bd 279b 42bd d00d ac3c
00000100: 7070 c23c 086c c6bd bebb f7bd 9c84 3d3d
00000110: 0067 f2bd a48f 923d 9cfe 63bd ea66 853d
00000120: 0f25 f0bd a00a f53d ccbd eabd 4ba3 11be
00000130: 608f 59bd fe41 93bd 9cc6 49bd b018 ccbb
00000140: 4e6e 0c3d e42f 79bd eccf eb3d 00b3 453d
00000150: 7e54 db3c d83c b9bc cc00 aabd b665 d63d
00000160: 44b5 b5bd 1221 c7bc 9083 cbbb 2c54 87bd
00000170: 000a 20bc 4087 6dbd 5097 533d 5299 01be
00000180: 3894 bbbc 4c6e 523d 362c efbd 584f e3bd
00000190: 6bb7 573e ce52 19bd 183a f3bd 08ff 5dbd
000001a0: 4002 f33b c007 293c ce1b e03d f7a0 05be
000001b0: 66ff b63c 9ab1 603d b965 0dbe 1216 eabd
000001c0: 57d4 1dbe 2a55 883d c040 97bd 3837 07bd
000001d0: b07c 893c 39ff 2cbe cd17 2fbe 5671 8bbd
000001e0: 4834 83bc c44f e8bd 5cbc cc3d 601a fc3c
000001f0: 184b cebc e0c9 ce3d 5fbb 0cbe ca15 dfbd
00000200: 0284 e7bd 608e e13b d23f 2e3d b483 453d
00000210: 14f2 683d e06c 943d db93 bbbc 52c3 d13d
00000220: 9447 16be 8036 d9bd c078 233d 669e dcbd
00000230: 80c1 cebd f838 7a3c 129a d9bd 0082 a9bd
00000240: 6eb4 bebd 0a33 de3d 00f3 6ebb 9098 c2bd
00000250: f48a dcbd d815 b7bd 5842 05be bca0 243d
00000260: 82b3 29bd ebcb 12be 4675 6fbd 9828 5ebd
00000270: 98be 723d a44a 9c3d 385e 31bc f092 673c
00000280: 2451 833d 28aa 49bd 9630 dabd c3d9 83bc
00000290: 6a69 0c3e 4224 153d 0442 813d 1c3b e93d
000002a0: 1043 513d 6eba 88bd 7029 9c3c 2852 2f3c
000002b0: 2f41 ffbd dadc 8abb 17cb 03be a62e 39bc
000002c0: fffc bc3c fc22 5ebd 0c1e 863d 442a 1b3d
000002d0: 808c 14bc d73b a43c 3d15 30be eef5 babd
000002e0: c0f6 933b ec8c 46bd 1ee7 d2bd 6472 22bd
000002f0: 0a11 edbd 84a7 a1bd d510 083d 9024 b1bc
00000300: a08c a6bc 2218 b9bd 0473 b53b bb70 00be
00000310: 700b 26be 2289 90bd b3ed d6bd 8868 543d
00000320: 0065 b3bd 0453 923d dc04 55bd 8700 f6bb
00000330: 98a5 85bc c1af 75bd f890 a23c 4005 64bc
00000340: 04a7 8fbc ecf2 4fbd 3c9b 303d f091 0c3c
00000350: 0dc0 61bd 7bbf 60bd bf02 9cbd 1e9e f33d
00000360: d208 8abc 1eaf 41be 0b66 8abd 98fc 22be
00000370: 6404 0fbd 801f 49bd 4e2e 17be 24df 00be
00000380: 7409 4fbd daf7 fbbd 23cb 573d 906e 06be
00000390: 415d e63d 78b9 e6bb d013 b0bd 648e a9bd
000003a0: 0024 56b9 d4d8 d2bd 88db 3e3d 723e 19be
000003b0: 8de2 85bd 58f3 85bc 488f 82ba e42f cf3b
000003c0: 4d9f ccbd 2c71 1bbe 9d8c 0abc 9024 35be
000003d0: e03f 7b3d 1cdb ed3c ccdc 0bbe d472 8ebd
000003e0: 3048 78bc 08b8 c1bd 3e2a f5bd 6011 7dbc
000003f0: 0a72 6cb9 409f ba3c 1c07 1abe e415 cabd
-0.11101839 -0.122246325 -0.1316348 -0.022827316 0.057386007 -0.11026518 -0.096558765 -0.07544719
-0.07014497 0.11007626 -0.07459681 0.056336496 -0.020174474 0.02123195 -0.05258946 -0.11104287
0.005906212 0.12389341 -0.106931806 -0.03024757 -0.00628239 -0.13951397 0.0031586972 -0.110174984
-0.04841536 0.057079796 -0.00803033 0.0414217 -0.011280194 -0.041089535 -0.08072999 -0.029858116
-0.057002664 -0.054055333 0.10295075 0.01892871 0.19899552 -0.1110225 0.049680293 0.023813874
0.11186941 -0.030072853 -0.09770714 0.051737163 -0.09305525 -0.086042 0.073568255 0.019368242
-0.017862592 0.062844224 0.09263326 -0.07414435 0.09062001 -0.0021227046 -0.024528649 -0.084161624
-0.052098334 -0.06929594 0.04863535 0.010680899 0.09192157 -0.11811346 -0.047511246 0.02100268
0.023735255 -0.09688574 -0.12096356 0.046269044 -0.11836052 0.071563035 -0.055662736 0.0651377
-0.11725818 0.11964917 -0.11461982 -0.14222448 -0.05311525 -0.071903214 -0.049261674 -0.006228529
0.034284882 -0.060836688 0.11514267 0.04826641 0.026773687 -0.02261202 -0.08300933 0.104686186
-0.08872464 -0.024307761 -0.006210752 -0.066078514 -0.009768009 -0.057990313 0.051657975 -0.12656143
-0.022897825 0.05137472 -0.116783544 -0.11099118 0.21066062 -0.037432484 -0.11876315 -0.054198295
0.0074160397 0.010316789 0.10942803 -0.13049684 0.02233858 0.054856874 -0.13808335 -0.11429991
-0.15413032 0.06656869 -0.07385397 -0.033011645 0.016783088 -0.16894235 -0.17098923 -0.068087265
-0.01601614 -0.11343339 0.09996864 0.030774295 -0.025182292 0.10097098 -0.13743351 -0.10892828
-0.11304475 0.0068834275 0.042541333 0.048221305 0.05687149 0.07247329 -0.022897651 0.102423325
-0.14675742 -0.10606098 0.039910078 -0.107723996 -0.10095501 0.0152723715 -0.1062509 -0.08276749
-0.09311758 0.10849579 -0.0036460757 -0.09501755 -0.10768691 -0.08939713 -0.1301359 0.04019235
-0.041430958 -0.14335601 -0.05846145 -0.054237932 0.059263796 0.07631424 -0.010825686 0.014134154
0.06411961 -0.04923454 -0.10653798 -0.016095048 0.13712087 0.03641153 0.063114196 0.11388227
0.051089346 -0.06676184 0.019062728 0.01070074 -0.12463605 -0.0042377533 -0.12870441 -0.011302626
0.023069857 -0.054232582 0.065487 0.037882105 -0.009066701 0.020048065 -0.17195602 -0.091289386
0.004515499 -0.048474237 -0.10297988 -0.039659873 -0.115755156 -0.07893279 0.033219177 -0.02162388
-0.020330727 -0.09037806 0.0055373926 -0.12543003 -0.162153 -0.07057406 -0.10494556 0.0518575
-0.087594986 0.0714474 -0.052006587 -0.007507387 -0.016314313 -0.059982065 0.019844517 -0.013917267
-0.017535694 -0.050768778 0.043116793 0.008579716 -0.055114795 -0.05487011 -0.07617711 0.11895393
-0.016849909 -0.18914458 -0.067577444 -0.1591667 -0.034916297 -0.049102306 -0.14763758 -0.12585121
-0.050546125 -0.12303133 0.05268396 -0.13128114 0.112482555 -0.0070411526 -0.08597529 -0.08279112
-0.00020422041 -0.10295263 0.04659608 -0.14965227 -0.06537352 -0.016351387 -0.0009960914 0.0063228477
-0.09991322 -0.1517989 -0.008456376 -0.17689729 0.061340213 0.029035144 -0.13658446 -0.069554955
-0.01515393 -0.09458929 -0.11970948 -0.015446037 -0.00022549197 0.022781014 -0.15041775 -0.098674566

bias f4 [64]
00000000: eb45 c4bd 21bf 72bd cd81 2cbe 3f98 cc3b
00000010: 35ce e53d 3d2e cebd b814 943d 193b 853b
00000020: 5217 013d cff4 243d 187b c4bd 6fe1 f9ba
00000030: 911a 0a3e 1d6a 84bd e734 f4bd 66c7 01be
00000040: f259 3e3d cd23 16bc cef8 aa3a 0ef4 d53d
00000050: cf64 fdbc 5ed9 183d a259 a9bd 3e4a 283d
00000060: f7c6 46be 23c1 c93d 886a a0bc bf2a 18bd
00000070: 55cb d8bc 014d 83bd 317c 6ebd c58e 9ebd
00000080: 3d0c fe3c 6a72 353c 2f74 aebd e521 013d
00000090: fbcc bb3c c5b4 653c 239f 883d c524 4fbd
000000a0: f828 ef3d bc4d 953d f578 1e3d c54b 1ebe
000000b0: 4188 a9bc 5131 27bd 0ef5 0bbd 0fe0 85bd
000000c0: f2e2 56bc 5fb4 08be 6c06 1cbb 6473 cd3d
000000d0: 6fc2 63bd b1b7 a53d ad8d c23c caff d7bd
000000e0: 8737 02be eeb6 43be e30e 0ebd 23ee 29bd
000000f0: ee3c c6bd 6545 d03d 3f0f 09bd 51ba 813b
-0.09583648 -0.059264306 -0.1684639 0.006243735 0.112209715 -0.10067413 0.07230514 0.004065883
0.03151638 0.04027253 -0.09593791 -0.0019064377 0.13486697 -0.06465552 -0.11924153 -0.1267372
0.046472497 -0.009163809 0.001304412 0.1044694 -0.030931858 0.037316673 -0.08269049 0.041086428
-0.19411837 0.09851291 -0.019582048 -0.03715014 -0.026464144 -0.06411172 -0.058223907 -0.07742075
0.031011695 0.011074642 -0.08518254 0.031526465 0.02292489 0.01402015 0.06670978 -0.050572176
0.11677736 0.07290217 0.038689572 -0.15458591 -0.020694854 -0.040818516 -0.03416925 -0.065368764
-0.013115631 -0.13350056 -0.0023807539 0.10031775 -0.05560535 0.08091677 0.023749197 -0.10546835
-0.12716495 -0.19112751 -0.034682166 -0.04148687 -0.0967959 0.10169486 -0.033461805 0.003958978

weight f4 [2, 64]
00000000: a1f0 223d 5050 d83c 3a65 e13c c9df c23c
00000010: 3876 313d 4b73 a93c 915c de3c 3c4e fc3c
00000020: d333 313d c75d a53c 8fbc ad3c 663f 293d
00000030: c69a 483d 8095 af3c 0232 123d a11a e43c
00000040: f309 e03c d84b f03c d4ba 453d 7f2a 0e3d
00000050: 4d70 053d 2a08 0e3d 5910 e73c d031 0f3d
00000060: 2079 c13c 95c1 2a3d 5205 3a3d 5924 e23c
00000070: d1ba 093d f393 db3c 5df4 4c3d a58c 383d
00000080: 86c5 103d ea40 c23c c5bf 243d 4a3a e23c
00000090: 424e d13c c504 303d fd8f e93c 59fb e43c
000000a0: 6000 343d 57bc 313d 6d39 d03c 1fd6 dd3c
000000b0: e3d8 073d 95e4 3b3d 4610 103d 81e0 4a3d
000000c0: 7a86 2c3d 38ab d23c 399a c83c 90fc 353d
000000d0: 657a e53c ea4c 333d c4b2 563d b3fe de3c
000000e0: ac04 ce3c 0e9e cd3c 2c8f d33c 69b4 063d
000000f0: 5bd7 cb3c 1561 143d 324b d23c 190c 2b3d
00000100: 8d77 8cbc 9e50 6dbc b00d 75bc 9626 6ebc
00000110: a418 babc 6f08 58bc b9cc 66bc 858a 09bd
00000120: 7ae3 17bd ae19 4cbc bf6c 66bc e612 b6bc
00000130: 61f6 06bd e63a 6bbc c952 8fbc 1f58 c6bc
00000140: 6fe3 84bc b2be 90bc 7a7e 19bd ac24 ddbc
00000150: 97ad c7bc 058b dabc 1c4e 92bc c5f2 8bbc
00000160: 6911 6fbc 720e 8dbc db92 febc 9d36 fdbc
00000170: eb40 80bc f585 cdbc 1751 06bd ff88 d1bc
00000180: 8cc4 c4bc c0b8 5cbc 77b0 f3bc 6236 7bbc
00000190: 2ca4 b2bc 9f01 05bd 6a55 e6bc 129f a6bc
000001a0: 3b77 18bd f3d5 c8bc f2f5 96bc 6822 a1bc
000001b0: 396e c1bc ce08 edbc 0530 ecbc bbed 1bbd
000001c0: 0182 a4bc ff4a 76bc d41d 80bc acc4 f4bc
000001d0: d26b f6bc 88b5 0dbd a715 10bd 9809 66bc
000001e0: f01c 6dbc 9bdc 85bc 8495 85bc c6c6 dfbc
000001f0: b284 85bc 6c30 bdbc 1559 64bc 0e30 e2bc
0.039780263 0.026405483 0.027514089 0.02378835 0.043325633 0.020684859 0.027143748 0.030799024
0.043262314 0.020186318 0.021208076 0.041320227 0.04897573 0.021433592 0.035692222 0.027844729
0.027348494 0.02933304 0.048273876 0.034708496 0.0325778 0.034675755 0.028206037 0.034959614
0.023617327 0.04168852 0.04541523 0.027605223 0.033625428 0.026803946 0.05003773 0.045056004
0.035344623 0.023712594 0.04022195 0.027615685 0.025550012 0.0429733 0.028511042 0.027951883
0.04394567 0.043392505 0.025418008 0.02707964 0.033165824 0.04587229 0.03517177 0.04953051
0.042120434 0.02571641 0.024487602 0.044430315 0.028012464 0.043774523 0.052416578 0.02722106
0.025148712 0.02509978 0.025825106 0.032886896 0.024882963 0.036225397 0.025670622 0.041759584
-0.01714685 -0.014484553 -0.014956877 -0.014535567 -0.022716828 -0.0131856045 -0.014086896 -0.03357937
-0.037082173 -0.012457294 -0.014064013 -0.022225808 -0.03294981 -0.014357304 -0.01749553 -0.024211941
-0.01622173 -0.017669056 -0.037474133 -0.026995026 -0.024374766 -0.026677618 -0.017859511 -0.017083535
-0.014591553 -0.017218802 -0.031075886 -0.03090983 -0.015655955 -0.02508829 -0.032792177 -0.02557802
-0.024019502 -0.013471782 -0.029747231 -0.01533279 -0.021806799 -0.03247225 -0.0281169 -0.020339523
-0.037223082 -0.024516081 -0.018427823 -0.019669726 -0.023612129 -0.028934862 -0.028831491 -0.038068514
-0.020081522 -0.015032529 -0.015639223 -0.029878937 -0.03008071 -0.03459695 -0.0351769 -0.014040373
-0.014472231 -0.016340544 -0.016306646 -0.027316462 -0.016298626 -0.023094378 -0.013937254 -0.027610805

bias f4 [2]
00000000: 13c8 313d da08 05bd
0.043403696 -0.032479145
